thesis_XAML/100K_accts_EASY25.pth (torch, 18242 bytes, 25 tensors)

node_emb.weight f4 [15, 32]
00000000: 677f 383e 4679 abbc 8561 2d3e 1001 efbd
00000010: d67a a63d faab 1fbe 6eec 003d 0506 373e
00000020: 3cb6 cfbd 05d1 b6bd f80a 30bd 65ec fbbc
00000030: de7a ce3c 50c2 b43d c933 8bbc e3eb 143d
00000040: a079 8e3d c03c 8d3d 7db0 9cbe b2a1 c9bc
00000050: ccc5 083e e7a2 083e e341 6b3d c0f2 64bb
00000060: f199 ab3c bddb 4cbd d7b5 5bbd 27bb b13c
00000070: 0102 d43d a7a6 1d3d 212b ed3b 8bdd cc3c
00000080: a1a2 91be bcdb 2b3e b66e 87be ab05 2b3d
00000090: 2c64 f2bc 87f5 8ebd 49c7 eb3d 0c4c dabc
000000a0: 7b68 453e 0219 7cbc 8b3e c4bd 0f80 69bd
000000b0: 15f1 f13d 4b62 603d a13c b9bd 5874 b8bd
000000c0: 3f0d 013d 4763 813d 8f3c d2bd 94bb 02be
000000d0: ee16 82be 3971 373e 086e f03e 309b 6f3d
000000e0: 8221 f4bd 7a34 8fbd 863d 4b3d f6df 14bd
000000f0: 347d aebc 1419 363c 2bf2 2dbc ae59 2a3c
00000100: ed2b 5c3e 23dc 3fbe 3a45 223e 961e f23c
00000110: aa86 85bd 5576 13be dfad 17bd 8deb ac3d
00000120: c6aa 12bd 1484 52be 4e65 b13c 1b42 6a3c
00000130: 5464 ac3d 657c d2bd d6a3 303e 2589 3c3d
00000140: e6d8 d9bd 6229 c4bd 6f65 a73d 5fc0 123d
00000150: 0034 bf3d d2e4 443e c412 43be aadb 94bd
00000160: f8b4 1f3d fe5c 2f3e a881 9a3c 643d 4dbd
00000170: 8142 a9bd c8b6 1cbd b8c5 33bd 3759 b8bd
00000180: 16e2 893e d888 843d e2fa 95bd 64ff 89bc
00000190: cb8c 3ebc f891 aa3d f11f 2d3e dc74 5bbd
000001a0: 27de 223e 535c 883d b4f6 13be 5653 123d
000001b0: ea2c 6d3d 4279 b3bd f520 193c a69a ffbd
000001c0: f7a2 213d 6900 f6bd 3b76 b1be 36e3 49bd
000001d0: 04a5 b3be 7695 92bc bac5 00bf 7f18 f0bc
000001e0: ddf5 d53c 06dc f7bc 8701 153c e6b3 b13b
000001f0: fa0d 4ebd ccdf fc3c 4193 dd3b d479 d13c
00000200: a6b7 dbbd 8fdf 52bd c9ca 323e ac6c 8e3c
00000210: 6099 8e3d 1002 11be 5855 08be 4eff 0e3e
00000220: 6df2 f6bd 7a41 23be 3860 823d e142 87bc
00000230: eb9e d9bb ecc4 9bbc 2978 a43c 0856 fb3c
00000240: 30e4 5cbd f4be 01bd 68f5 463d d80a ecbc
00000250: da15 87bb 9050 85be a19a 8ebe 6bb1 35bb
00000260: 7367 5e3a aaa4 a0bd 0a85 92bb e357 2c3d
00000270: a560 43bd 99ef ca3d 064f 2bbb 3305 233d
00000280: 64e2 cbbd 1673 babc b4c3 32bb 5049 b23d
00000290: 3f84 083e 485a e43d a8d4 473e 4a7e 673d
000002a0: 6004 3fbd 4c49 963b d03c 083e 2d18 a43d
000002b0: a33f d2bd 7b24 91bd 2777 3c3d 27c4 afbc
000002c0: b7a6 bc3c 7d81 97bd e1c9 fcba 9c92 6c3b
000002d0: 00d7 7b3d 4b2a 543e 99c5 0e3f 5ac0 adbc
000002e0: d0bd 923d 1704 ea3d 0ef8 febd 1ac7 193d
000002f0: 55ec 993d 88ec a7bd 2cad 0cb9 989d d4bc
00000300: 3ec3 0c3e 9a4d 68bd 0925 a4bd 3311 1b3d
00000310: 958b f33d 15cd 9fbd 76d1 073e 1a31 31bd
00000320: ef04 f4bd 7924 723d 9cd6 993d a073 c9bd
00000330: 0443 af3d bc3a 62bd 3ceb 133e c7c5 e53d
00000340: 4e66 dfbd 1401 79bd 2d7b a0bc 08da 023d
00000350: 7642 37be 1707 fabd 5ca3 923e 5454 03bd
00000360: 2c31 423d c92c d5bc 9140 99bd 57a9 8abb
00000370: 1026 f23c 0433 d83d a82c 0bbc 0a4a d33c
00000380: bff5 06bf 037d 12bd 9f49 663c a0fd 2fbd
00000390: 573a 23be 79d2 e23d 6d3d 45be 5ffe 20bd
000003a0: d11a 203e 6ac1 843d b91a 853c b5f3 cf3d
000003b0: d5ab 01be 0896 713d c984 ba3d 6ac1 d9bc
000003c0: 0912 da3c 54d3 41bc d985 1ebe 7eff eb3d
000003d0: 08db fabd 6125 d03c 6203 323e 329a 71bd
000003e0: 3ff7 023b 9b3f 2abe 4fbe 833d 627a 643d
000003f0: 424b cfbd 83d1 293e bfa1 90bc e6fb 2e3d
0.1801735 -0.020931851 0.16931732 -0.116701245 0.08128898 -0.15592948 0.031475477 0.1787339
-0.1014218 -0.08926586 -0.04297921 -0.03075237 0.025205072 0.08826125 -0.016992467 0.03635777
0.06956792 0.06896353 -0.306034 -0.024613235 0.13356704 0.13343392 0.05743588 -0.003493473
0.020947428 -0.050014246 -0.053640213 0.021695687 0.10351945 0.03848901 0.0072378074 0.025007984
-0.28444389 0.16783041 -0.26451653 0.041753452 -0.029588781 -0.069804244 0.1151262 -0.02664759
0.19278137 -0.015386822 -0.095822416 -0.05700689 0.11813561 0.05478124 -0.09044767 -0.09006566
0.031506773 0.06317764 -0.10265457 -0.12766868 -0.2540812 0.17914285 0.46958947 0.058497608
-0.119204536 -0.06992431 0.04961922 -0.0363464 -0.021299936 0.0111143775 -0.010616819 0.010397358
0.21501131 -0.18736319 0.1584672 0.0295556 -0.06519826 -0.14400609 -0.03703105 0.08443365
-0.035807393 -0.20558196 0.021654751 0.014297987 0.084175736 -0.102776326 0.17249998 0.04602923
-0.10637073 -0.09578206 0.08173644 0.03582799 0.0933609 0.19227913 -0.19050127 -0.0726846
0.038990945 0.17125317 0.018860653 -0.050107375 -0.08264638 -0.03826025 -0.04388973 -0.090013914
0.26930302 0.064714134 -0.07323243 -0.016845413 -0.011630247 0.083286226 0.16906716 -0.053578243
0.15905057 0.066582344 -0.14449579 0.035724007 0.05790416 -0.087633625 0.0093462365 -0.12480669
0.039462056 -0.12011797 -0.34660515 -0.04928895 -0.35086834 -0.017893534 -0.50301707 -0.029308556
0.026118213 -0.030256283 0.009094602 0.005423057 -0.050306298 0.030868433 0.006761939 0.025570787
-0.107283875 -0.051482733 0.17460169 0.017385803 0.06962848 -0.14160943 -0.13313806 0.13964579
-0.12057958 -0.15942946 0.063660085 -0.016511383 -0.006641259 -0.019014798 0.020076828 0.030680671
-0.053928554 -0.031676248 0.04857388 -0.028813764 -0.004122478 -0.26038027 -0.27852347 -0.0027724158
0.0008484043 -0.07843907 -0.004471426 0.042076003 -0.04769959 0.09908981 -0.002613963 0.03979988
-0.0995529 -0.022759955 -0.0027277293 0.087053895 0.13331698 0.11150032 0.19514716 0.056516923
-0.04663503 0.0045863744 0.13304448 0.08012424 -0.10266044 -0.07087036 0.04601207 -0.021455837
0.023028715 -0.07397745 -0.0019286239 0.0036098128 0.061484337 0.20719258 0.5577026 -0.021209884
0.0716511 0.11426561 -0.124496564 0.037543394 0.0751578 -0.08199412 -0.00013415952 -0.025954053
0.13746354 -0.05671463 -0.080148764 0.0378582 0.118918575 -0.07802788 0.13263497 -0.043259718
-0.119150035 0.059116814 0.075116366 -0.09836507 0.08557704 -0.055231795 0.14445204 0.11219364
-0.10908185 -0.060792044 -0.019589985 0.031946212 -0.17896447 -0.122083835 0.28640258 -0.032062843
0.047410175 -0.026022332 -0.07483018 -0.0042316127 0.029559165 0.105566055 -0.008494534 0.02579214
-0.5271873 -0.03576375 0.014055639 -0.042966485 -0.15940224 0.11075301 -0.19261713 -0.039305087
0.1563523 0.06482203 0.016248094 0.10153905 -0.12663205 0.05898097 0.09107358 -0.026581485
0.026619928 -0.01183017 -0.15480746 0.11523341 -0.12248808 0.025408449 0.17384103 -0.058984943
0.0019983796 -0.16625826 0.06432783 0.055780776 -0.10121776 0.16583829 -0.017655252 0.042720698

node_emb.bias f4 [15]
00000000: 3fb8 37bd 968d e5bd 1457 28bd d294 f83d
00000010: 96f2 63be 6bb6 2ebe f113 10be 4775 f5bd
00000020: d4a4 e2be 7ee7 29bd 3233 773e 49d5 8cbe
00000030: 7bfd 61bd 4f44 c53b 99d3 303e
-0.044853445 -0.11208646 -0.04109867 0.1213776 -0.22260508 -0.17061774 -0.14070107 -0.119852595
-0.4426638 -0.041480534 0.24140623 -0.27506474 -0.05517338 0.006020106 0.17268218

conv1.lin_l.weight f4 [15, 15]
00000000: 7bc7 5abe 29b0 d2bd 8708 9f3e b2ce 813e
00000010: 1e92 c8bd b83e 1cbe 9554 b1bc 2422 5cbd
00000020: e99d 163f c515 bbbb 6a14 34bd 4c51 df3d
00000030: 6c28 91bc 7efe 323e 1aa7 3b3e fcbe 7f3b
00000040: d73f a73d b7d6 243e b58f 8dbc cae1 87be
00000050: 09cd 5fba 4060 68be 4c37 28be cedf 84be
00000060: b54d 2ebe 184e eabb 9c3d 40be 1121 3c3d
00000070: 4ecc bebd 1d35 443d d264 06bb 2df1 45bd
00000080: d8be 633e 835a 3ebd 39da 19be c067 1d3e
00000090: 5a89 553d df1b 1a3e f149 44bc 4f56 95bd
000000a0: 3f80 c63d 16e1 1ebe 28ce 80be bbf1 b6bd
000000b0: ba01 6e3d cab4 16bd 21e8 ff3d bb4d 2f3e
000000c0: f129 d439 1d7e e0bc 1751 7f3e faec c3bd
000000d0: 903e a9bd d2dd 88bc 2dfc 74bb 336d 7f3d
000000e0: be9c 1bbe 7ed8 f2bd 5a1a 94be 5044 273c
000000f0: 2fec b4bd fa94 4abe c199 4cbe c5f7 a1ba
00000100: 1189 19be 923a efbc 6c17 38be 5849 86bd
00000110: 7aed 95be 39bd c83c 09d7 c93e 492a 3a3d
00000120: 53ea 90be 1040 61bd ca50 f9bd 1ed0 8e3b
00000130: 0261 b13d 1f61 06be af91 00bd 7275 b13d
00000140: e281 083e 75f2 d33d 2da7 fe3c b144 bebd
00000150: 3a0c 913a 93d0 1fbe a622 773d d835 bdbe
00000160: 9cea 80b9 efe8 48bd f7c6 e7bd fb9b 3e3d
00000170: f351 ea3d 17be 8d3c 3cb8 003e 8064 b0bd
00000180: d08f c1bd f525 3ebe b1bc 2cbd 8e49 c3bd
00000190: af6f da3d abe5 6fbe 396b 323d 9a94 debd
000001a0: 600f 07be 42d7 d9bd ea6f a03d cbb3 013e
000001b0: 5bbc 43bd ac0a fd3d c86f 793c fcd0 08be
000001c0: 4003 2f3e a800 a63d 35fc c4bd d02f f73d
000001d0: e8bd 9abd 3764 9e3d d7de debd 15df ec3c
000001e0: c586 f53d 69d1 8c3e f9ca 62bd 12f1 23bd
000001f0: 0655 983d 8c9a f2bc 5aeb c63d 9df7 403e
00000200: 7a52 8d3e 2e7d 9a3d df80 6cbc 621b 203d
00000210: 2681 42be 886b 39be 619e 633d 9105 8cbe
00000220: c1a6 1fbd 264f 0f3e 1625 f23d 0201 96bd
00000230: 3d7c b1bd 4c7d ba3d 899d 0e3e a980 a3bc
00000240: 03c2 ee3d 1a59 1cbd 691e 5f3e c51c 053d
00000250: f368 1abe e7ed 0cbd 6e87 e73d 33a7 b53d
00000260: 708b 9c3d 6bd7 af3c d3e5 b83d 707e b4bd
00000270: a4a9 813d 1758 83bd d04c 8a3c 4af7 76bd
00000280: 3724 fabd 38a5 87bd df97 fa3d 2aec ab3c
00000290: eee3 b3bd 91e6 a4bd 0640 8a3d 746a a5bd
000002a0: b335 713d b4e0 c7be e800 7bbe 6dc5 c9bd
000002b0: 0f60 103c f25e 3ebe fb31 16be 88f7 0ebd
000002c0: 4e83 27be d4c4 5abe a713 e73c a730 14be
000002d0: 17bc 033e 4c3e 983d 3257 993d 6c98 d83d
000002e0: 87c5 cf3d 13dd 443e 9de1 04be 1a48 11be
000002f0: 2015 a03d 0b40 d03d b90e ab3d 4db4 78be
00000300: 1469 e4bd e493 d1bd 18c1 5fbe ffe2 8abd
00000310: c1e0 b0bd 2057 d33d cf53 81bd c736 133e
00000320: 6b7a 63be d198 2d3d e9fd ea3d bc8e 993e
00000330: 4d71 1a3c 626f 94bd 1862 b83d 1a67 b83d
00000340: 7ddb 28be dd21 0a3d 7d3c 0f3e b278 78bd
00000350: 0518 c73d a925 74bd 6179 333e dee8 eabd
00000360: a93b 343e 7e1e 6f3d c037 943e a94b 813e
00000370: e201 e9bd f39f a8bd 53ed 6dbe 3d18 2abe
00000380: 68d6 c33d
-0.21365158 -0.10287506 0.31061193 0.25353009 -0.09793495 -0.152583 -0.021646777 -0.053743497
0.588347 -0.0057093822 -0.04396478 0.10904178 -0.01771947 0.17479894 0.18325463 0.0039023748
0.08166473 0.16097532 -0.017280439 -0.2653945 -0.00085373275 -0.22692966 -0.16427344 -0.25952
-0.1702183 -0.007150423 -0.18773502 0.045929972 -0.09316312 0.047902215 -0.002050687 -0.048325706
0.2224077 -0.046473037 -0.15024652 0.15371609 0.05213294 0.15049694 -0.01198052 -0.07291853
0.0969243 -0.15515551 -0.25157285 -0.08932825 0.058107115 -0.036793508 0.12495447 0.17119496
0.0004046704 -0.027403885 0.24933277 -0.09566684 -0.08263886 -0.016707335 -0.0037381754 0.06236
-0.15196511 -0.11857699 -0.28926355 0.010209158 -0.08834111 -0.19783393 -0.19980527 -0.0012357166
-0.14993693 -0.029202733 -0.17977685 -0.06556958 -0.29282743 0.02450429 0.3942187 0.045450483
-0.28303775 -0.054992735 -0.121736124 0.0043583056 0.08661081 -0.13122986 -0.031388935 0.08664979
0.13330796 0.103489794 0.031085575 -0.092904456 0.0011066266 -0.15606909 0.060335778 -0.36955142
-0.0002458886 -0.049050268 -0.113172464 0.046535473 0.11441412 0.017302556 0.1257028 -0.08612919
-0.09451258 -0.18569167 -0.042172138 -0.09535514 0.10665833 -0.23427455 0.043559287 -0.10868187
-0.13189459 -0.1063676 0.07833846 0.12666242 -0.04778705 0.12355551 0.015224405 -0.13360971
0.17091084 0.08105594 -0.09618417 0.120696664 -0.07555753 0.07733958 -0.10882347 0.028914968
0.11988596 0.27503517 -0.05536935 -0.040024824 0.07438092 -0.02961471 0.097128585 0.18844457
0.27601987 0.075434074 -0.014435022 0.039088614 -0.18994579 -0.18107426 0.055570964 -0.27347997
-0.03897739 0.13995036 0.1182348 -0.07324411 -0.08666275 0.0910593 0.13927282 -0.01995881
0.116580985 -0.03817091 0.21788944 0.03249814 -0.15079097 -0.03440657 0.11305128 0.08869781
0.07643783 0.021465024 0.090282105 -0.088131785 0.063311845 -0.06413286 0.01688233 -0.060294427
-0.12213939 -0.0662331 0.12235998 0.020986635 -0.087837085 -0.080517896 0.06750493 -0.08076945
0.058889102 -0.39038622 -0.24512064 -0.09852109 0.008811965 -0.18590906 -0.14667504 -0.034904033
-0.16358683 -0.21364146 0.028207613 -0.14471684 0.1286472 0.07433757 0.07487334 0.10575947
0.10145097 0.19224958 -0.1297669 -0.14187661 0.07816529 0.10168465 0.083524175 -0.2428753
-0.111528546 -0.10233286 -0.21851003 -0.06781577 -0.086366184 0.10319352 -0.06314813 0.14376365
-0.22214667 0.042382065 0.11474211 0.2999171 0.009426427 -0.07247807 0.09003085 0.0900404
-0.16489978 0.0337237 0.13987918 -0.06066198 0.09721378 -0.059606228 0.17526771 -0.11470197
0.17600884 0.05837869 0.28948784 0.25253037 -0.11377312 -0.08233633 -0.23235063 -0.16610809
0.09562379

conv1.lin_l.bias f4 [15]
00000000: f3b1 02be 5410 5c3e 60ec 1abe a86b 69bd
00000010: 0109 51bd 620d 433e 16cb fabd 6a91 59be
00000020: 54c2 1e3e 9495 6ebe 3c2d 5f3e 4a02 823e
00000030: 6998 8f3c fa7b b43d 867e 7e3e
-0.12763195 0.21490604 -0.15129232 -0.056987435 -0.051033977 0.19048074 -0.12245767 -0.21246877
0.15503818 -0.23299247 0.217946 0.2539237 0.01752873 0.08812709 0.24852952

conv1.lin_r.weight f4 [15, 15]
00000000: 09f7 573e 2819 ca3d 50e4 4d3e 3afa ab3d
00000010: 5616 743d 5f1a de3d fc0a 5f3e 764f 133d
00000020: f494 963c fff1 c63d fe18 8ebd f65a d53e
00000030: f88e 44be ec95 e03d 7456 1ebe 4abb 37be
00000040: 028d bd3c 98cf a7bd c3fc 2dbe cd4f 8bbe
00000050: 30ac 0bbe d5b3 92be 2d3d e53e 7113 433e
00000060: c0ac 80be 8afd 15bb 0f90 c63c 4244 bfbd
00000070: 73cf 4c3e a201 b3bc 0e02 4bbe 2bd9 d33e
00000080: 3767 fdbd 0646 953e 84a6 b9bd 50d7 2d3e
00000090: 1e4e 983e e436 e93d f6b1 873e f1c6 2ebe
000000a0: c941 dfbd 1ea8 ccbd 1c19 bd3d 471d 913d
000000b0: 3c6d 31be 8e9a 61be 4e4c b8bd 779d 34be
000000c0: 6942 4fbc 1247 1a3e 7ebd 2bbe ee02 d2bd
000000d0: 2a18 9a3b 699e 77be 6484 203e e9ee cabd
000000e0: 0f9b 04bf 1c9a c0be f97a 093c 0bd9 6c3e
000000f0: fc0e 2abe aad3 e0bd df61 12bd 5a9f 323e
00000100: fa32 baba fe30 b8be 2978 85be 57c8 79bd
00000110: 9327 b9bc 2a3c 933e afb7 ee3b 19d9 b3be
00000120: ddf8 873d ae6e 053d 8aeb 0f3e ef34 1cbe
00000130: 9134 2abd 949a 2ebe a6ed b8bd e2c0 083e
00000140: 472a 04be 6a7e 0b3d c572 fd3d 7380 97bd
00000150: fcba 543e 972a 8fbd 9f0d bfbe c2f3 81be
00000160: 141d 173b f61a 8c3e 2e6f e53d 1e11 ff3e
00000170: f11f f7bd 8d87 a03e 0936 013d 2823 afbd
00000180: 05d7 923d 8c6d 5d3e a13b 43be a1e7 0e3e
00000190: a5b4 833c f43e 553e 21e6 9cbc 4e27 c6be
000001a0: 67c8 37bd 3337 373e 5902 b23e a9ee cb3d
000001b0: 3f50 acbd c57a 1a3d acef 53be bffa f23d
000001c0: 2aa4 c53d 3966 4fbe 2429 c3be 0118 c1bc
000001d0: e6d0 dbbd c018 373e ad51 f33c ecc6 60be
000001e0: 7327 a63c 31d2 39be 7598 9c3e cdba c43e
000001f0: d2f0 1e3d dedf 20be cc6a 64be bf91 90bd
00000200: 92ac f53e c107 99bd e479 c63c ed8b 72bd
00000210: 286d a83d 7608 7bbc b06d 6a3e 8817 4ebd
00000220: 5f12 7cbe 9906 a23e 7f9a 6f3e 59fd ae3c
00000230: 00f2 54be ada3 1b3d 14cb c8bd 2df9 af3e
00000240: ffe7 62be 3dde 0c3e 9595 b6bc 024f 783c
00000250: c10f 24be 243b 9a3e e6ce aa3d 501a 91be
00000260: 55ef 8bbd 8e27 e03e 5e82 023e 3aac 80be
00000270: 72c8 07be 3324 1bbe 5dfc 933c 2454 423e
00000280: 959a 84be a3b9 a7bd 0e6e 773d 0709 de3d
00000290: d82e 9a3e 905d 603c cf79 cebe f6fb 2cbd
000002a0: 4fc7 1f3e 67fc ac3d 882d 4bbe 75a4 7a3d
000002b0: 45f7 733c 52fd 6c3e 3b59 023d 9445 563e
000002c0: 0d62 d2bc 72ec 7abe 51ae 83be 0f5e 663e
000002d0: b953 ca3d e277 28be 3ba7 9b3c 9abf c13e
000002e0: 5d3f 2e3e 6fca 23bd 5488 33be 16d3 50be
000002f0: 7a95 583e 9b21 283e 131f 50be d880 e2bd
00000300: 85ff 88bd b9f4 863b 2a8c 923e 92be 833e
00000310: d7e5 dfbd 5923 73bd 885c 223e 88c8 84be
00000320: 9737 203e 9b74 7e3e 4748 91be 7a97 c43d
00000330: 9d7a f7bc b813 1e3c 04f9 133e 7879 efbd
00000340: 4ab8 0bbe 288a 6d3e a021 60be d4c8 34bd
00000350: c23d 2d3d 453c 6ebd f3ff 22bd 0af7 8a3d
00000360: 4bc2 253e 8776 abbe 1a56 1b3d c807 23be
00000370: e845 1ebe e30d 973e f1d5 c4bd 0b19 b4bd
00000380: b109 f03d
0.2109033 0.098680794 0.20106626 0.08397336 0.059591614 0.10844874 0.21781534 0.03596445
0.018381573 0.09714126 -0.06938361 0.4167096 -0.19195163 0.10966095 -0.15462667 -0.17942539
0.023138527 -0.08193892 -0.16990952 -0.2720932 -0.13639903 -0.28652826 0.44773236 0.19050385
-0.25131798 -0.0022886717 0.024238614 -0.09339191 0.2000101 -0.021851365 -0.19825003 0.41376624
-0.12373202 0.29154986 -0.090649635 0.16976666 0.297471 0.11387423 0.2650296 -0.17068078
-0.109012194 -0.09993003 0.09233305 0.07085662 -0.17326826 -0.22031614 -0.08998929 -0.17638193
-0.012650111 0.15066174 -0.16771504 -0.10254465 0.0047025876 -0.24181522 0.15675503 -0.0990885
-0.517991 -0.37617576 0.008391135 0.2312967 -0.16607279 -0.10977872 -0.03573787 0.174436
-0.0014205866 -0.35974878 -0.26068237 -0.060982075 -0.022601878 0.2875684 0.0072850804 -0.3512657
0.06639264 0.032576256 0.14054695 -0.15254568 -0.041554037 -0.17051154 -0.09029703 0.13354829
-0.12906753 0.034056105 0.12375406 -0.073975466 0.20774454 -0.06990545 -0.3731508 -0.25381285
0.0023058103 0.2736432 0.112028465 0.49817747 -0.12066639 0.31353417 0.031545673 -0.085516274
0.07169918 0.2162382 -0.19065715 0.13955547 0.016077349 0.20824796 -0.019152703 -0.38701862
-0.044868853 0.1789215 0.34767416 0.0995763 -0.08413743 0.03771474 -0.20696896 0.11864232
0.096504524 -0.20253839 -0.38117325 -0.023571016 -0.107332036 0.17880535 0.029702032 -0.21950883
0.020282483 -0.18146588 0.30585065 0.38423768 0.038803883 -0.15710399 -0.22306365 -0.07059049
0.47983223 -0.07472182 0.024228044 -0.059215475 0.08223945 -0.015321841 0.22893405 -0.05031541
-0.24616383 0.3164566 0.2339878 0.02136104 -0.2079544 0.03799789 -0.09804359 0.34369794
-0.22158812 0.13756652 -0.022288123 0.015155556 -0.16021635 0.30123246 0.08340244 -0.28340387
-0.06832758 0.43780178 0.12745044 -0.25131398 -0.13260058 -0.15150528 0.018064672 0.1897741
-0.25899187 -0.08189704 0.06040769 0.108415656 0.30113864 0.013694182 -0.40327308 -0.042232476
0.15603374 0.084465794 -0.19841588 0.061191995 0.014890497 0.23143509 0.031823378 0.2092498
-0.02568152 -0.24504259 -0.2571893 0.22496818 0.0987925 -0.16451982 0.01900064 0.37841493
0.17016359 -0.039987978 -0.17532474 -0.20393023 0.21150771 0.1641907 -0.20324354 -0.11059731
-0.066893615 0.0041185287 0.28622562 0.2573133 -0.1093251 -0.059359882 0.1585561 -0.25934243
0.15646206 0.24849169 -0.28375456 0.09599204 -0.030209834 0.009648256 0.1445046 -0.1169309
-0.1364452 0.23197234 -0.21887827 -0.044136837 0.042295225 -0.058162946 -0.039794873 0.067854
0.16187398 -0.33488867 0.03792391 -0.15920937 -0.15456355 0.29502782 -0.096111186 -0.08793839
0.117205985

conv2.lin_l.weight f4 [15, 15]
00000000: 371e 2cbc 9773 ca3c 4745 0a3b db4c 63bb
00000010: c4a3 14be d079 f03b d21e 17be 5865 95bc
00000020: 3300 a3bc b646 b13b f8b8 c63c f1a2 48bd
00000030: c1a3 f0bc 1195 943d 1a57 1e3d 1edd 1d3d
00000040: 056c deba 4626 69bb b443 653c 4367 b43c
00000050: fdc4 6ebb 1ffb 6d3d cdd1 9a3c 2a2d 8b3c
00000060: a0a5 1f3d efc3 86bb 2a75 753c 4b31 9fbc
00000070: dbd8 953d b118 5ebd dc3b ec3c 8031 23be
00000080: d4e8 9bbd 1c51 e1bd b649 1b3d 6d65 0dbe
00000090: a8c6 59be 0b0a 4ebe e357 e0bd 16df e2bd
000000a0: 310b 27be 8104 3d3d 621f 26be 14fe 7bbd
000000b0: 3c05 4dbe d7c5 6fbe 4eab d53c 3e36 653c
000000c0: 5c6c faba de89 ed3c 5bcf 463c a890 e2bc
000000d0: 9394 a53c 4b32 2f3c 94fe 9bbd 8b47 813c
000000e0: 9a1b 8b3d b1c7 293c b957 21bf 464e 80bd
000000f0: e22f 1abd b341 d7bd 6215 bebe d450 843d
00000100: ba9c 443d 5da4 a7bd 40c7 35be 7a63 2dbf
00000110: 765f 33bd 6067 ac3d 8bd8 7bbb 28f7 c53d
00000120: 66a5 033d 994e 2f3e 8b2c 4fbe 2348 7bbe
00000130: df48 52be 8355 4bbe b07d 96bc 9a27 db3c
00000140: 7ed8 0a3d 9a43 0ebd 8e3c dbbe 494a e73c
00000150: 6769 7dbd 73d6 5c3a e7fd 4bbc fd6b 4d3c
00000160: 9549 093d fadb 03be 9b00 54bd 8a9d f7bb
00000170: df3b a13c b2d3 daba 0782 823c 50e2 cb3a
00000180: 6e66 623c 7ece 423c 61d8 da3c 0b1e 1bbd
00000190: 6624 a03a 225d 3a3c 4204 a03c 6693 97be
000001a0: bd55 d7bc 1046 88bd ed7d 9dbd cccc d5be
000001b0: 5e69 123d 451b 43be f847 ef3c 7d93 c93c
000001c0: 96d1 02bf 179e 96bc c9f4 6e3d f4b7 493c
000001d0: f691 313c 3214 04bb f3ea 4b3e 0b05 9a3d
000001e0: 7e85 07bd 852a 2a3d 27c1 ae3c 6571 ddbc
000001f0: 530c 38bd 51e5 48bc f89a 263e 295d 843c
00000200: 79ad 4abd 2bcf ad3d 8625 373c 9349 503d
00000210: e496 393c ee61 06be 4421 2ebd b4c9 d23a
00000220: 5392 053d 7e44 343b 27f6 bebd fac1 2a3e
00000230: e3c9 d8bd bd2b af3d 5d95 663c 48a5 0c3d
00000240: 9eed 3d3e f906 92bc 6cdf 25bc 773f 4ebc
00000250: 2e62 4b3e b2a2 93bd ed8e 983d 195e c5be
00000260: 1c36 8abe a55a b43c 670c 1bbd 7087 8fbc
00000270: 67eb 053d d5ca 8dbd 3bee 40ba 52e0 6f3e
00000280: 5ee8 203e 5308 c23e b0cb 983d 4bdd 983e
00000290: 4163 18bd 1584 dbbe 65ef 603d 5b87 fc3d
000002a0: fbba 27bc 4680 24bd 4ae1 67bb fd0f fe3d
000002b0: 74e6 7a3d bcbb 82ba 1c2a ea3a c9dd 86ba
000002c0: d789 8b3d 70f3 4fbb 70f2 68be 74c0 5bbd
000002d0: 551f 4abd 2ec8 8d3d 9bca 473a 150a 823d
000002e0: f30a 323c 357b 353d 52c8 1b3d 77e4 9a3b
000002f0: ed45 753d 42e9 95bc 235b d7bc a964 acbc
00000300: 46c8 29bd b825 ad3d 8169 cdbc 8783 bcbc
00000310: 6978 7e3c b085 493c f601 08bc 8f4b 753d
00000320: e3c0 40bb 43cb ed3d 975c 013c 4dfd c83c
00000330: 422e 983d 4515 da3c 3023 1b3c ecd4 853c
00000340: 0b21 3fbe e4f2 17bc c6d8 e6bd cd0f d83d
00000350: 0dd3 393d 0f93 143e 4940 3f3e b453 ed3d
00000360: c82e c83e a487 883d c6d3 d1bc b684 07bd
00000370: ceac 3ebb 45dc 22be 0b98 903c 6ed1 05be
00000380: f8ec 8b3d
-0.010505251 0.02471332 0.0021098421 -0.003468326 -0.14515597 0.00733874 -0.14757851 -0.018236801
-0.019897556 0.0054100407 0.024258122 -0.048983518 -0.029374959 0.07254995 0.038657285 0.038540952
-0.0016969448 -0.0035575791 0.013993192 0.022021895 -0.0036433332 0.058100816 0.018898869 0.01698931
0.03897631 -0.0041127126 0.014981547 -0.019432684 0.073167525 -0.054222766 0.028837137 -0.15936852
-0.07612768 -0.110017985 0.037912093 -0.13808222 -0.21267188 -0.20121019 -0.10954263 -0.110777065
-0.16312863 0.046146873 -0.16222909 -0.061521605 -0.20021528 -0.23415314 0.026082661 0.013989983
-0.001910578 0.028996404 0.012134398 -0.027656868 0.020212447 0.010693143 -0.07616916 0.015781185
0.06792374 0.010362552 -0.6302448 -0.062649295 -0.03764332 -0.10510578 -0.3712569 0.06460729
0.04800103 -0.08185647 -0.17751789 -0.67729914 -0.04379221 0.08418155 -0.003842863 0.09666282
0.032140158 0.17119826 -0.20231836 -0.24539237 -0.2053561 -0.19856839 -0.01837048 0.026752282
0.03389787 -0.03473244 -0.42819637 0.028233664 -0.061868098 0.00084242894 -0.012450672 0.012537953
0.03351744 -0.12876883 -0.05175839 -0.007556622 0.01968187 -0.001669517 0.015931142 0.0015555117
0.013818366 0.011890052 0.026714506 -0.037870448 0.0012217879 0.011374744 0.01953328 -0.29604644
-0.026286 -0.06653988 -0.07690034 -0.4175781 0.035745017 -0.19053371 0.029209122 0.02460646
-0.5110105 -0.01838593 0.058338914 0.012311924 0.010838022 -0.002015364 0.19913845 0.07520493
-0.033086292 0.041544456 0.021332337 -0.02703161 -0.04493363 -0.012261705 0.16270053 0.016157703
-0.049481843 0.0848678 0.01117838 0.050851416 0.011327479 -0.13123295 -0.042512193 0.0016081841
0.03261025 0.0027506645 -0.093242936 0.16675559 -0.10585382 0.08553264 0.014073697 0.034337312
0.18547675 -0.01782559 -0.010124069 -0.012588373 0.19861671 -0.07208766 0.07449136 -0.38548353
-0.26994407 0.022015879 -0.037853625 -0.017520636 0.0326952 -0.06923453 -0.0007359718 0.23425415
0.15713641 0.37896976 0.07460725 0.29856333 -0.03720403 -0.42874208 0.054915804 0.123305045
-0.010237451 -0.040161394 -0.0035382085 0.12405393 0.061254933 -0.0009974162 0.0017865333 -0.0010289486
0.068134 -0.0031730793 -0.22748733 -0.053650334 -0.049346287 0.06922947 0.0007621438 0.06349579
0.010866868 0.044306953 0.038032837 0.004726942 0.05988114 -0.018299703 -0.026288575 -0.021044092
-0.04145076 0.0845446 -0.025074722 -0.023011936 0.015531638 0.01229994 -0.008301249 0.05988651
-0.0029411844 0.11611035 0.00789561 0.024534846 0.07430698 0.02662147 0.009468839 0.01633688
-0.18664949 -0.009274218 -0.11271815 0.10549889 0.04536729 0.14509223 0.18676867 0.11588231
0.3909819 0.066664964 -0.025613677 -0.033085547 -0.00290947 -0.15904339 0.017650625 -0.13068172
0.068323076

conv2.lin_l.bias f4 [15]
00000000: b9a2 55be 506d 1dbe 1df5 523e db7b bdbd
00000010: 6056 6c3e f468 7ebe a6c3 3b3d 68d8 81be
00000020: 9a6b 52be 0105 3c3e 84b4 43be 0549 1abe
00000030: c92c ba3d 87d7 0b3e ce4a 2bbe
-0.20862855 -0.1537373 0.20601316 -0.09252139 0.23079824 -0.24844724 0.04584088 -0.25360417
-0.20548859 0.18361284 -0.1911183 -0.15066917 0.09090573 0.13656436 -0.16727754

conv2.lin_r.weight f4 [15, 15]
00000000: 20ed 40be 0140 69be 7b61 f3be da21 bcbd
00000010: 7e27 2d3d 53d4 1b3c 30bf 05be 4836 b6be
00000020: 9a43 05bd 8378 a23c 1139 873b 72db 0c3d
00000030: f08a 7e3c ab74 083e 44a5 e2bd 2cb9 49bc
00000040: 210c b3bc 7ac9 c8ba 2d5c 35be 13bd 98bd
00000050: 8af1 f3bc 23b4 913b b35f 65ba 3e25 8dbe
00000060: f4af babd 52af 23bf c31f 96bc 5d9f 2bbf
00000070: a57d 273e b37e 82bd df4f a6be 6549 7a3b
00000080: 457c 6bbb 3864 db3e 583d 73be d2d7 9ebc
00000090: 860d febd 67f7 84be bdb2 5c3e dca3 4cbd
000000a0: 09da 14bd 6321 c6bd 834e 49bd eaa7 a3be
000000b0: 72c8 0fbe b64a 35be 02c0 5b3d cd09 ee3c
000000c0: 4f32 2ebe 58ab c5be e335 ecbd c8f5 2b3e
000000d0: 4241 053d 3d78 43be beec d5be 0aca 58be
000000e0: 012e 9bbe cd02 66be 6e4f b4be 0e2a b9be
000000f0: 5529 75bd af3d e4be 1028 64be 30c5 21be
00000100: ef1d 88bd 72ec 30be 0af0 6cbe 74d8 f5be
00000110: 4ffb 8fbd 1b32 6b3d 58b5 b83b f663 8a3c
00000120: 664b a8bb 954e b0bc 5767 0a3d 284e 85be
00000130: 8ba7 65be 41aa eabc dc0f 1bbe b89e a2bd
00000140: 046f 56bd 93a3 53be ee1a 12be e200 86be
00000150: 4f30 33bd f6e4 b0be 602e 6cbd cc58 9ebe
00000160: 131d c6bd ef40 febb af46 3dbe c528 543d
00000170: 707c 713c fa39 a1be a710 8bbe 7859 abbe
00000180: 376c b33d 4383 9b3c 3007 8ebe 8147 13be
00000190: 256d 2fbe 9b95 6bbd 71b6 20be 5317 88be
000001a0: a783 9abe a07f a8bd b5f1 c7be fcf6 a9be
000001b0: cab5 8fbc fd27 e23d 7a6a 45bd 0b3b 233d
000001c0: 734f a3bd 0129 09be 150a 513d 3359 d1bc
000001d0: 76b9 ba3d c4ef 65bb b21e 803e 8c3d 773c
000001e0: 982c dcbc 58c9 013b f643 173d 859b 93be
000001f0: a1c7 25be a123 f5bd 8650 ac3d 4870 5bba
00000200: 929e 73be 1768 09be 80af 05bf 3b7c 05be
00000210: d787 d4be fc1e 38bd 990c 4dbd b276 22be
00000220: ebb5 36be 1e54 d4be 1407 10bd 1f81 3d3d
00000230: 4ba1 2c3e 5191 4bbe b2f7 c6be 8195 c13a
00000240: fe97 7abd 1740 473d 8991 cdbc 5425 123d
00000250: d20f 4abe 9690 7cbd 5ff1 24be 64c3 3d3d
00000260: f233 373d 9b07 743c 5b06 c3be dd0f bc3c
00000270: 8092 ddbd 3edd b93d ef39 4d3e 8005 1dbe
00000280: a4e4 af3d c36b 89bd 0a89 0c3e 4d92 27bd
00000290: 5432 b6bd c540 88bb 8851 a13b 81c6 703c
000002a0: 720b 513d 40bc 11bf 33c3 2cbd 46aa a03d
000002b0: 5bad e53a 4e3a 153e f982 9cbe 50ab 14be
000002c0: 2c5b e8be 84f7 20be e2ce 00bd 3b53 55bc
000002d0: 6443 11be 94e0 09be 231c ebbe 5d77 a83d
000002e0: ccf6 49bc a755 ed3d 140f f1bd b946 1cbf
000002f0: 62ba 3fbe 6a1a bd3c c785 0b3d 099b 253d
00000300: ee4a 023d b97e 843d 63f5 b6bd 6fcb d2bd
00000310: e2be a13d 2fe3 1e3d 0636 c2be e88b a0bd
00000320: ffca 61be e1c7 2a3e 7e43 833c 2133 68be
00000330: 280f 0bbe b6a1 edbd 33e5 2ebd 8dbb 54be
00000340: ccf7 83be 0600 94be c26e a9bd fa9f b8be
00000350: 3969 8fbe 0247 ff3e 4e6f a33d 7c3d b0bd
00000360: d3bc a1bd a4eb babc 6066 b6be 70f5 f73d
00000370: 6531 12be 4546 04bd 45d4 c63c 48bd 003f
00000380: cb8b 85bc
-0.18840456 -0.22778322 -0.4753531 -0.09186144 0.04227399 0.009511071 -0.13061213 -0.35588288
-0.032535173 0.019832855 0.004126676 0.034388967 0.015536055 0.13325755 -0.11066678 -0.012312215
-0.02185637 -0.0015318834 -0.17710944 -0.07457938 -0.02977826 0.004446523 -0.0008749917 -0.27567476
-0.09115592 -0.6393939 -0.018325692 -0.67040044 0.16356523 -0.06371822 -0.32482812 0.003819072
-0.0035932225 0.42849898 -0.2375387 -0.01939002 -0.12404923 -0.25970003 0.21552558 -0.049960956
-0.036340747 -0.09674337 -0.04914714 -0.31964046 -0.14041308 -0.17704281 0.05364991 0.029057408
-0.17011379 -0.38607287 -0.115337156 0.16792977 0.032532938 -0.19088836 -0.41782182 -0.21170822
-0.30308536 -0.22462006 -0.3521685 -0.36164898 -0.05985387 -0.4457831 -0.22280908 -0.15797877
-0.066463344 -0.17277697 -0.23138443 -0.48016703 -0.07030355 0.05742083 0.0056368522 0.016893368
-0.0051359413 -0.021521846 0.03378996 -0.2603619 -0.22427194 -0.028645637 -0.15142769 -0.079404294
-0.052351967 -0.20667867 -0.14268085 -0.2617255 -0.043747243 -0.34549683 -0.057661414 -0.30927122
-0.09673514 -0.0077592055 -0.18483995 0.051796693 0.014739141 -0.31489545 -0.27161142 -0.33466697
0.08760875 0.018983489 -0.2773986 -0.14382745 -0.17131479 -0.05751572 -0.15694596 -0.26580295
-0.30178568 -0.082274675 -0.39051595 -0.33196247 -0.017542738 0.110427834 -0.048197247 0.03985123
-0.07974138 -0.13394548 0.051035006 -0.025555229 0.09117405 -0.0035085538 0.2502342 0.0150903575
-0.026876733 0.0019803848 0.036930047 -0.2882959 -0.16189434 -0.11969686 0.08413796 -0.0008370918
-0.23790959 -0.13418613 -0.52220917 -0.13035671 -0.41509888 -0.044951424 -0.050060842 -0.15865591
-0.17842834 -0.41470426 -0.035163 0.046265718 0.16858403 -0.19879653 -0.38860852 0.0014769287
-0.061180107 0.048645105 -0.02509381 0.03568013 -0.19732597 -0.061661325 -0.16107701 0.046328917
0.044727273 0.014894391 -0.38090786 0.022956783 -0.10818958 0.09075402 0.20041631 -0.1533413
0.085885316 -0.06710007 0.13724151 -0.040911008 -0.08896318 -0.0041581118 0.0049230494 0.0146957645
0.051036306 -0.5692787 -0.042178344 0.07844977 0.0017522977 0.14573023 -0.30568674 -0.14518476
-0.4538206 -0.1571942 -0.0314473 -0.013020332 -0.14185864 -0.13464576 -0.45919904 0.08225892
-0.012326907 0.115886025 -0.11770454 -0.61045414 -0.18723443 0.023083884 0.034063127 0.040431056
0.03180974 0.06469483 -0.089335226 -0.10292708 0.07897736 0.038790878 -0.37931842 -0.07839185
-0.22050093 0.1667781 0.016023394 -0.22675754 -0.1358 -0.116031095 -0.04269905 -0.2077467
-0.25774992 -0.28906268 -0.082730785 -0.36059552 -0.28009966 0.49858862 0.07980214 -0.08605477
-0.078973435 -0.02281744 -0.3562498 0.1210736 -0.14276655 -0.032293577 0.02427114 0.5028882
-0.01630201

conv3.lin_l.weight f4 [15, 15]
00000000: e3c4 3cbe ec82 fbbe d831 80bc 4365 80bd
00000010: d5c2 49be acb2 38be 2f64 0abd 6ebb 833d
00000020: 311c 12bd 02d3 073e ea75 86bc 9dd3 873e
00000030: a9f2 293c b488 24bc 27ec 7fbc a61c a5bd
00000040: b866 eebe 581d 783d d2b7 f5be 23a0 863e
00000050: f57c 3fbd 1197 b1bd 6924 22be a3a6 2dbe
00000060: 4746 79bd fbb4 aebd eb42 45be bace ecbd
00000070: 365d 67bd 84f1 ef3d 0610 693e 5028 7e3e
00000080: 1b4f 893c 2943 0abf 0914 923e 6600 e63d
00000090: cc8f 2abf c1e3 033d 0010 abbd 45cb d03b
000000a0: 1528 103c a0de 7abc 4bec 5a3d 8833 8dbe
000000b0: 6ac1 24bb 847f afbb 492d d1bc 115a 8bbc
000000c0: de4e 55bd 658b d23d 7866 69bd 0367 a83c
000000d0: 49c8 95bd ee62 0f3d ce1a 5b3d d162 50be
000000e0: a48f 683d a37d 41bd e1be 8abb 42c2 003d
000000f0: 9a89 2f3e 08b2 7d3e a2ce aa3a 6927 b8be
00000100: 96b2 353e cff6 783e 3076 43be 2f6c 0a3d
00000110: c86f b0bd 072c 123c 8149 4dbc 3b9d 1fbc
00000120: b66e 263e 2e77 70be 3e07 02bc 17c7 56ba
00000130: 4684 1a3d 3050 2f3d 4251 d63d 7d10 b4bd
00000140: e88f 5cbe b087 543e c027 32bc 17f5 a73d
00000150: 8bd3 f83c d4f4 05be 8bb9 edbd 632f d73c
00000160: 2507 9b3d e95b 2ebc 2265 703e 684c a23d
00000170: fdf5 c73c 566c dfbe d54a 123e fdc0 613c
00000180: 60be 1bbf 15c6 293d 6fe2 00be cbb8 efbc
00000190: 58f8 e13d 17c1 4cbd 99c3 ee3c 51dd 85be
000001a0: 92f3 46bc 90b5 393e abd4 b53d 80b4 d83d
000001b0: 67dd 643d 7327 203e 23a8 ad3d f961 a1be
000001c0: 9b75 1ebe 1705 94bc dac3 c43d a21f 5abb
000001d0: fc31 7c3d a7b4 a93c ae17 8abe 3bd3 593e
000001e0: d4da 053e 5b15 663e 9354 58be 0fe8 5fbc
000001f0: 3995 06be a999 8c3e 4efd 5abb a134 81be
00000200: 75a9 5e3d b313 c9be 023b 19be e78f d93c
00000210: fff5 56be bd16 65bc 9320 f83d 6a74 a9be
00000220: 787d bdbd 5578 2dbd 2c5e 59bb 570d bfbd
00000230: f830 dd3c c111 603c d093 bb3d dab4 c73d
00000240: 01ca f13d 132f 46bd 76c4 a1be fdbd 953d
00000250: 1d5d 613c ae6e 8dbd 748e 1b3e debd 76be
00000260: faac 343d 1414 87be 459d a33d f513 0fbe
00000270: aa8b 41be c572 fe3c 1f11 1ebe 8e48 e53c
00000280: 55b1 cebc d668 86bd ba94 fd3c 034d fcbc
00000290: 62d1 fdbc 6cae c1bd aa04 513e f148 543d
000002a0: d0cb 1fbd b1b3 cebd 50d5 59bd a5cc d3bc
000002b0: 7d26 6bbe 9714 803b d1b4 e8bd 2e4b f73c
000002c0: 7109 e9bd ac9e b5be f1ed 65bb e94e cb3c
000002d0: b3ec 93be b564 43be 6f0c c0bb 14f6 58be
000002e0: 135a 143e 7cfd 49be 0cb2 b5be ea4e 78be
000002f0: 9649 8ebe 828e 23be 1147 06be 56e4 673d
00000300: 5ec1 b53b 3af8 ffbc b02f 983d d718 303e
00000310: 1319 2dbd d7d9 413d 961e 0fbf 3679 383e
00000320: 8fc6 933e 3a24 f7be 9cbf 163e c78d bcbe
00000330: 2396 4c3d 2212 7d3d df7f 443d 8019 813c
00000340: 13fa 98be d1ce 4fbc f541 1c3d 19fd 863d
00000350: 780d 7f3b 7bd2 85be 660e b43d 78d7 373e
00000360: f839 a3be f032 813d 47cf 1fbc 24fc 5f3d
00000370: 6509 c6bc 947f 873c f3d4 e63c c533 1fbe
00000380: fc78 50bc
-0.18434481 -0.49123323 -0.015648767 -0.06269314 -0.19703229 -0.18036908 -0.03378695 0.06432234
-0.035671417 0.13264087 -0.016413648 0.26528636 0.010372796 -0.010042358 -0.015620268 -0.08062105
-0.46562743 0.06057486 -0.47991806 0.2629405 -0.046750028 -0.08671392 -0.15834202 -0.16958098
-0.060858037 -0.08530613 -0.19263808 -0.115628675 -0.056485377 0.11715987 0.22760019 0.24820065
0.016761353 -0.5400873 0.2853091 0.11230545 -0.66625667 0.032199625 -0.08352661 0.006371888
0.008798619 -0.015311867 0.053448003 -0.27578378 -0.0025139698 -0.005355777 -0.025534289 -0.01701072
-0.052077167 0.10280494 -0.056982487 0.020556932 -0.07313592 0.035006456 0.05349236 -0.20350195
0.05677761 -0.047238957 -0.0042341803 0.03143526 0.17142335 0.24774945 0.0013031552 -0.35967568
0.17743906 0.243129 -0.19088054 0.03379458 -0.086150706 0.00892163 -0.012529732 -0.0097420765
0.1625317 -0.23482963 -0.007936297 -0.0008193119 0.037723802 0.042801082 0.104647174 -0.087922074
-0.21539271 0.20754886 -0.010873735 0.08201044 0.030374309 -0.13081676 -0.11607655 0.026267713
0.07569722 -0.01064203 0.23476079 0.079247296 0.024409289 -0.4363734 0.14286359 0.013778922
-0.60837364 0.04144867 -0.12586378 -0.02926292 0.11033696 -0.049988832 0.029146003 -0.26145414
-0.012143033 0.18135667 0.08878454 0.10581303 0.05587521 0.15640049 0.08479335 -0.3152006
-0.1547455 -0.018068833 0.09607668 -0.0033283015 0.061571106 0.020716025 -0.2697119 0.21271984
0.13071758 0.22469084 -0.21126013 -0.013666167 -0.13142861 0.27460983 -0.0033415142 -0.25235465
0.054360826 -0.39272842 -0.14963916 0.026557876 -0.20992278 -0.013982472 0.12115588 -0.3309663
-0.09252447 -0.042351086 -0.0033167703 -0.09328716 0.02700089 0.013676108 0.09159052 0.097512916
0.11806107 -0.048384737 -0.315952 0.07311628 0.01375511 -0.06905876 0.1519106 -0.24095866
0.044110276 -0.26382506 0.07988981 -0.13972457 -0.18900934 0.031060586 -0.15436219 0.027988698
-0.025231043 -0.065629646 0.030954707 -0.03079844 -0.03098363 -0.094570965 0.20411935 0.051827375
-0.03901273 -0.10092867 -0.053181946 -0.025854418 -0.22963901 0.0039087045 -0.11362613 0.030187216
-0.11378754 -0.3547262 -0.003508445 0.0248179 -0.28891525 -0.19081385 -0.005860857 -0.21187621
0.14487486 -0.19725603 -0.354874 -0.24248853 -0.27790517 -0.15972331 -0.13113047 0.056614242
0.005546733 -0.031246293 0.07430971 0.17196976 -0.04226024 0.04732689 -0.55906045 0.18014988
0.28862426 -0.48269826 0.1472153 -0.36826918 0.04994787 0.06178487 0.04797351 0.01575923
-0.2987829 -0.012683586 0.03814884 0.06591243 0.003891794 -0.26137146 0.08791809 0.17953289
-0.31880164 0.06308544 -0.009754009 0.05468382 -0.024174402 0.016540326 0.028177714 -0.15547092
-0.012724157

conv3.lin_l.bias f4 [15]
00000000: 8488 403e b61a 88bd c790 c1bd 3cbe 993e
00000010: 726b 6fbe aa06 33be 5b84 483c d87a 613e
00000020: 038a 5a3e 0959 0a3d 3cbc bd3d 7929 953e
00000030: 3f72 0b3e 9549 9d3d 2db2 993e
0.18802077 -0.0664572 -0.09451442 0.3002795 -0.23380831 -0.17483011 0.012238587 0.22019517
0.2134171 0.033776317 0.092644185 0.29133204 0.136178 0.0768005 0.3001875

conv3.lin_r.weight f4 [15, 15]
00000000: f754 973e 1182 4bbe a9e1 433e 7c80 a0be
00000010: 5734 babd cd47 82bc a8dc 85be a7ff cebd
00000020: c575 97be 888e a13d 1586 8ebd 871a 43bd
00000030: 9bdc 80bc 90e1 6cbe 969b b83c 3215 863d
00000040: 76d0 8a3e dc4d 843e 7171 71be 8e13 113e
00000050: bbe5 2dbe a095 acbe dce4 dbbd 3b04 05be
00000060: 2b70 bebd 6483 a0bd d9b5 f63d be40 52be
00000070: 78b4 30be 342f 673d b308 753d 2073 e33b
00000080: cb3b 12bf 7636 41be f17b 823d 554f 7f3c
00000090: 2b8f 06be dee2 1b3e c0d1 d6b9 7a67 8c3e
000000a0: 53ea 793c 9809 05be 15a6 dc3d b2ee 63bd
000000b0: 17a2 823d 40b0 663d 2c87 febe 6d9c 1e3e
000000c0: 7162 23be c007 3f3e 33b1 9abe ae87 26be
000000d0: 525f 833c 7ede b6be 7912 f73d d862 f8bc
000000e0: 80a1 39bc e041 813d 6954 24be 3fd4 ea3c
000000f0: eaf0 8a3e 41ab 133c 5be7 f7be 4ea7 a1be
00000100: 71be 643d 3aff 8d3d b2bc 2abe c658 3c3e
00000110: 59ea 34bd b26e 99bd c427 8b3c 4149 a4be
00000120: c775 70bc e22d e9bd ce2f ba3d 46cc 6ebe
00000130: d96e e73c 5ccb c1ba 7f56 9b3e 6971 6fbe
00000140: 069b c0be d565 a43e df6f 0fbd ecc6 2d3e
00000150: 57c8 0abe 11ec 64be 2501 c03d 45e7 06be
00000160: f419 033e 8b31 ddbd 81ba 01bd 1003 b93c
00000170: 194b b5be 7a46 58be 75bd 0e3d c725 f4bd
00000180: 7cd5 25be 6cbd 8b3d 08cc f0ba 42aa ddbb
00000190: 3824 803b a259 2abd 662a 8d3e a659 7dbd
000001a0: c1a4 1a3d eabc 84bd 320d 54bb 318e d1bd
000001b0: 618b 103c af39 ac3d 76ba bb3d 0b2b c3bd
000001c0: d692 db3d 382f 63be 844d 3dbd 4a8e ebbd
000001d0: 213c 6cbd 708c d53c bf6e 95be 6930 8dbe
000001e0: e2d3 5c3e b323 0fbe 1c3b a13e 6714 90be
000001f0: d7cd 43bd 2384 573d 7339 9abe df93 9d3d
00000200: 6adf 44be 2df9 813e 16b9 e1bd a2c6 45bd
00000210: 1142 9e3e 08bd 59be 2f77 b3bc ecb5 dbbd
00000220: bd86 dabe e95b c43d e33f 27be c620 a23d
00000230: 2240 c9be de0a 37be 1fcc 953d 2c02 89be
00000240: 7427 123e e91a d8bc a673 0f3c a4be bb3d
00000250: 5a19 e8bd 2fe8 3fbb ccc3 6fbd f3de f0be
00000260: 6570 0a3e 32b5 3cbe aabc 8b3c 252f 8bbe
00000270: f9f3 3bbe a0c0 8dbb fefa 86be b272 8bbc
00000280: 4974 40bc 1e84 b13b b46f 163d a6f4 77bd
00000290: cfd2 5fbb 1f9e d8bd fd8e 9abe c110 243e
000002a0: a2d9 2fbe faf9 8f3e ef54 2fbe 44cb 50be
000002b0: 8a28 90be a6ee 48be 95df 4b3e fe76 8bbd
000002c0: fe2b d73c ef80 ac3e c6f1 29be 93bd 543d
000002d0: 406d 163d 836b 92bd 5b2e 333e eada 8ebe
000002e0: 262b 9cbe b0d1 90bc 9640 96be 7dc3 4cbe
000002f0: 7a75 dabd a6af 6abc c384 9bbb fdd6 243e
00000300: 629e 5fbc dd77 17be 3795 b5bd 8914 3b3e
00000310: fa65 573c 59fe c9be 2ad0 34be 13ce 5a3d
00000320: 145a 91bd ad2f 0dbe 226b a73d f9d2 f8ba
00000330: 7c55 6a3e 2baf 853b 6b1e 143c 2c1f a3bb
00000340: 5c3c 83bd 3695 813d 4280 8f3d 8feb 7d3c
00000350: 1c39 91be 1ffa 1dbf 6f26 35bc 739e f8bc
00000360: f32e 9ebe b0e9 8f3d 00db 42be d976 0d3e
00000370: e403 323c d838 f4be 2b86 5d3d 951e 0abe
00000380: 438b 133d
0.2955701 -0.19873835 0.19129051 -0.31348026 -0.09092014 -0.015903378 -0.2614491 -0.101073556
-0.2958204 0.07888514 -0.06959168 -0.04763272 -0.015730193 -0.2313292 0.022535127 0.065470114
0.27112168 0.25840652 -0.2357843 0.14167616 -0.16982166 -0.33707905 -0.10737011 -0.12989895
-0.09298738 -0.07837561 0.120464034 -0.2053251 -0.17256343 0.0564415 0.05982275 0.006941214
-0.57122487 -0.18868431 0.06371296 0.015582879 -0.13140552 0.15223262 -0.00040973537 0.27422696
0.015253621 -0.12991941 0.10773865 -0.05564756 0.063785724 0.05632043 -0.49712503 0.15489359
-0.15955521 0.186553 -0.30213317 -0.16262695 0.016036663 -0.35716623 0.1206407 -0.03032057
-0.0113300085 0.06311393 -0.16047825 0.02866566 0.27136928 0.009012998 -0.48418698 -0.31572956
0.05584568 0.06933446 -0.16673544 0.1839324 -0.044168804 -0.074918166 0.016986735 -0.32087138
-0.014676518 -0.113857046 0.09091149 -0.23320112 0.028251098 -0.0014785337 0.3033943 -0.23383106
-0.37618273 0.32108942 -0.035018798 0.16970414 -0.13552986 -0.22355677 0.09375218 -0.1317416
0.12802869 -0.10800465 -0.031672005 0.022584468 -0.35408857 -0.21120635 0.03484865 -0.11921268
-0.16194719 0.06823239 -0.0018371353 -0.006764681 0.0039105676 -0.041589387 0.2757141 -0.061853074
0.037754778 -0.06481345 -0.0032356498 -0.10232199 0.008822293 0.0840944 0.09166424 -0.09529694
0.10721366 -0.22185981 -0.046216503 -0.11501749 -0.05767453 0.026067942 -0.29186055 -0.27575997
0.21565202 -0.13978462 0.3149041 -0.28140566 -0.047803726 0.05261625 -0.30121955 0.0769422
-0.1922585 0.2538542 -0.110216305 -0.048285134 0.3090978 -0.21263516 -0.021907417 -0.10728058
-0.42680922 0.09587843 -0.16332965 0.07916407 -0.39306742 -0.17875239 0.07314324 -0.2675947
0.14272863 -0.02638002 0.0087556 0.09167221 -0.113329604 -0.002928268 -0.058536336 -0.47045097
0.13519438 -0.18428496 0.017057735 -0.27184406 -0.18354787 -0.004325941 -0.26363367 -0.017022464
-0.011746475 0.005417361 0.036727622 -0.06053605 -0.0034152751 -0.10577034 -0.30187216 0.16022016
-0.17172864 0.28120404 -0.17122243 -0.2039004 -0.2815593 -0.19622287 0.19909509 -0.06809805
0.026266094 0.3369212 -0.16596135 0.051938605 0.036725283 -0.071494125 0.17498152 -0.27901393
-0.3050167 -0.017678112 -0.2934615 -0.19996448 -0.10666938 -0.014324104 -0.004746051 0.16097637
-0.013648601 -0.14791818 -0.08866351 0.18269552 0.013146872 -0.39451864 -0.17657533 0.053419184
-0.07097259 -0.13787718 0.08174731 -0.0018983773 0.22884172 0.0040797195 0.009040455 -0.004978081
-0.06407997 0.06327288 0.07006885 0.015498056 -0.28363883 -0.6170978 -0.011056527 -0.030348992
-0.30895194 0.07026994 -0.19028854 0.13814868 0.010865185 -0.47699618 0.05408303 -0.13488229
0.036021482

bn1.module.weight f4 [15]
00000000: 718e 2f3f a776 1c3f 56eb 703f 1053 6e3f
00000010: 2cf8 8d3f 9eb4 633f 0953 6f3f 9e4c 823f
00000020: 5672 4e3f ce79 513f 6044 913f b646 523f
00000030: 47e2 9f3f af6f 423f 033f 523f
0.68576723 0.6111855 0.94109094 0.93095493 1.1091361 0.88947475 0.93486077 1.0179632
0.8064321 0.81826484 1.1348991 0.82139146 1.2490929 0.75951666 0.821274

bn1.module.bias f4 [15]
00000000: 75f3 57bf 3578 12bf c593 11bf 32f4 1ebe
00000010: 1b3f 37be 1a5e 1abe aed9 08bf fda2 20bf
00000020: 4db1 5fbe d4ed 4ebe 9a29 4e3d 1dc4 2dbe
00000030: 5f6a 883c ddba 67bf 68ae 99be
-0.8435586 -0.5721467 -0.56866103 -0.1552284 -0.17895167 -0.1507496 -0.5345715 -0.627487
-0.21844979 -0.20207912 0.050332643 -0.16969343 0.016652284 -0.90519506 -0.30015874

bn1.module.running_mean f4 [15]
00000000: cc61 e2be 1cb6 a83e c444 a6be 58be 843e
00000010: 515b bc3e 313e a13e 495c c7bd f912 27be
00000020: 64e3 843a 8c24 52be a687 9c3e 1afd 013f
00000030: 564a f43c e9c5 6a3c a37d ff3c
-0.44215238 0.32951438 -0.3247434 0.2592647 0.3678842 0.3149276 -0.09734399 -0.16315831
0.0010138568 -0.20521754 0.30572242 0.5077683 0.029820602 0.014329412 0.031187838

bn1.module.running_var f4 [15]
00000000: 8193 493e d638 373e fdbc 3c3e 5c80 713f
00000010: b21e 3e3f 123e 253f 8425 a03e 10fa 5f3e
00000020: fdc9 f53e 1a4a b53e dd21 5f3f f918 cb3e
00000030: 469d 2b3f 0d74 2a3e e482 4b3e
0.19685175 0.17892775 0.18431468 0.94336486 0.7426559 0.64547837 0.31278622 0.21872735
0.48005667 0.35408098 0.87161046 0.3966749 0.67036855 0.16645832 0.1987415

bn2.module.weight f4 [15]
00000000: 3073 793f d754 3a3f ff2a 7b3f b952 353f
00000010: 95ad 503f 78f9 5f3f 9bcb 5b3f 37a6 6f3f
00000020: d177 323f 1539 413f 47f1 163f e82e 2a3f
00000030: 2c14 663f 6829 323f df1d 303f
0.9744139 0.72785705 0.9811248 0.7082935 0.81514865 0.87490034 0.8585755 0.93613
0.69714075 0.75477725 0.5896191 0.66477823 0.8987453 0.6959443 0.6879558

bn2.module.bias f4 [15]
00000000: 9c05 8dbd 4cc6 10bf 2a0e a2be 7bf6 26bf
00000010: f408 b5bd 7720 bebe fb8b 61bf a809 69bd
00000020: db1a 21bf 5a9f 16bd 81c2 d5be 219c f4be
00000030: 51fb 16bc 0209 31bf a487 18be
-0.068858355 -0.56552577 -0.3165143 -0.6521985 -0.08839598 -0.37134144 -0.8810422 -0.056893975
-0.62931603 -0.036773063 -0.41749957 -0.47775367 -0.009215192 -0.6915437 -0.14895493

bn2.module.running_mean f4 [15]
00000000: 9f4e 8ebe 4201 02bf b047 793d 613c d6be
00000010: cec8 a73d 05e1 06bf b6ee 5ebe ea62 98be
00000020: 0e08 08bf 8e8f 093e 140d 40be 66dd bdbe
00000030: 041a 603d 6004 9ebd c3f0 debd
-0.27794358 -0.5078317 0.060859382 -0.4184294 0.08192597 -0.526871 -0.21770748 -0.29762965
-0.5313729 0.13433668 -0.18754989 -0.37082976 0.05471231 -0.07715678 -0.108857654

bn2.module.running_var f4 [15]
00000000: 442e 9d3e bf70 0f3e a7a0 703e e8a2 ed3d
00000010: c3e4 023f 19ff 6b3e 21a1 763d 616d 2c3e
00000020: 73ed c73d da43 a23e 0d4a 3c3d 0bda 9c3d
00000030: b781 103f d356 223d 9ea1 5f3d
0.3069936 0.14007853 0.23498784 0.116033375 0.5113031 0.23046531 0.06021226 0.168386
0.09762087 0.31692392 0.045969058 0.07658776 0.5644793 0.039633583 0.05459749

bn3.module.weight f4 [15]
00000000: 0ee7 db3f 1329 a43f e3e8 cb3f 128a d53f
00000010: 6a05 ba3f 824b c13f d1bb d43f 1c95 613f
00000020: fe93 d63f eba6 d13f 75c7 d73f a999 bf3f
00000030: 119d 963f 62e5 cf3f 1041 dd3f
1.7179887 1.2825035 1.5930446 1.6682761 1.4532902 1.5101168 1.6619817 0.8811815
1.6763914 1.6379064 1.6857744 1.4968768 1.1766683 1.6241877 1.728548

bn3.module.bias f4 [15]
00000000: 295f 3d3f 9a9a 873d 434d 243f 02e9 363f
00000010: fdea eb3e ac58 d8be e654 2b3f f87a 1fbe
00000020: 6ed7 423f 78b7 203f 5757 433f 7224 073f
00000030: 5c27 153d dab2 253f 2497 433f
0.7397333 0.06621285 0.6418039 0.7144929 0.4607772 -0.4225515 0.6692642 -0.15574253
0.7610997 0.6277995 0.76305145 0.52789986 0.03641449 0.6472603 0.764025

bn3.module.running_mean f4 [15]
00000000: 26c3 363e 970e b0bd 8fc9 9bbd a0a7 9c3e
00000010: 3738 64be 407b 60be 88e2 943c e5e0 573e
00000020: 3c83 6f3e bff9 df3c 62a0 993d 0ff8 8f3e
00000030: ff35 a53d 85fb b63d 56a9 963e
0.1784788 -0.08596533 -0.076068036 0.30596638 -0.2228707 -0.21922016 0.018174425 0.21081884
0.23389906 0.027340768 0.07501294 0.2811894 0.080669396 0.08934692 0.29426068

bn3.module.running_var f4 [15]
00000000: 61c5 c53b fadd b03b ac73 303c c496 b83b
00000010: 1938 3f3c d5ff 953b 19d8 ca3b b472 113c
00000020: e876 333c d97f a13b 4eeb a63b dc26 123c
00000030: 6df7 d53b a750 033c d827 123c
0.0060354923 0.0053975554 0.010769766 0.005633207 0.01167109 0.0045776167 0.0061903116 0.008877445
0.010953642 0.0049285707 0.0050939685 0.008920398 0.0065297396 0.0080148345 0.008920632

classifier.weight f4 [2, 15]
00000000: 6fa3 023f 38c3 b33e 2c93 143f edc0 a93e
00000010: 012d 0e3f 4d7a e9be 6a1b c03e 12d7 b83b
00000020: faec c63e 1cd9 fb3e 840d 0d3f 641c 1f3f
00000030: e933 603e ee04 d73e 3a11 0c3f a7eb ebbe
00000040: 1195 6dbe bb58 89be feb9 19bf fef5 efbe
00000050: 7907 053f 947e 1abf c700 fdbd eb19 01bf
00000060: be4b f6be 2542 dfbe bdf4 93be d1d5 8bbe
00000070: cdf2 eebe ce7b febe
0.5103063 0.35109878 0.58037066 0.33155003 0.5553742 -0.4560112 0.37520915 0.0056408728
0.38852674 0.4918908 0.5509875 0.62152696 0.21894802 0.4199595 0.54713786 -0.46078226
-0.23201396 -0.26825508 -0.60049427 -0.46867365 0.5196453 -0.6034939 -0.12353664 -0.5043017
-0.48104662 -0.43605152 -0.28897658 -0.27311566 -0.46669617 -0.4970383

classifier.bias f4 [2]
00000000: 8c9b db3c 48dd 81be
0.026807569 -0.25364137
