thesis_XAML/model.pth (torch, 19730 bytes, 15 tensors)

conv1.att_src f4 [1, 3, 15]
-0.24453887 -0.39236766 -0.56121033 0.32721817 0.7085041 0.1660698 -0.3246288 0.5568412
-0.17624567 -0.6117715 -0.65271854 -0.0672156 -0.3896469 0.033577867 -0.61244494 -0.17730682
-0.6760393 -0.5057868 -0.5426348 -0.3843798 0.44754654 -0.24240635 -0.3446413 0.54893166
0.07496238 -0.49086064 -0.43858042 0.088912964 -0.45174325 0.24358918 -0.52121055 -0.502326
0.23304684 -0.043758474 0.16731893 -0.08198435 -0.41427943 0.35426056 -0.11186046 0.4796502
-0.22336076 -0.13419606 -0.0010393602 -0.32623768 0.12668858
00000000: 6668 7abe 6ae4 c8be 7bab 0fbf 2489 a73e
00000010: 8660 353f 340e 2a3e bf35 a6be 258d 0e3f
00000020: bf79 34be 0f9d 1cbf 9018 27bf 55a8 89bd
00000030: cc7f c7be f288 093d 31c9 1cbf eb8f 35be
00000040: e910 2dbf 3e7b 01bf 1dea 0abf 6ecd c4be
00000050: d224 e53e 5f39 78be d374 b0be c986 0c3f
00000060: e085 993d 1652 fbbe 9d8d e0be 0018 b63d
00000070: e44a e7be 716f 793e 0e6e 05bf 7098 00bf
00000080: d5a3 6e3e 163c 33bd a755 2b3e 69e7 a7bd
00000090: 6f1c d4be a461 b53e 1917 e5bd b694 f53e
000000a0: afb8 64be b16a 09be 243b 88ba a008 a7be
000000b0: a7ba 013e

conv1.att_dst f4 [1, 3, 15]
0.8544585 0.20783003 -0.29132053 0.67233497 -0.1953412 -0.46256396 -0.814417 0.6073346
-0.06560938 0.33841312 0.9872291 0.97664094 0.33919513 -0.8251783 -0.49441683 -0.15983927
-0.47757867 -0.010918445 -0.2956245 0.07615331 0.3670954 0.00011013341 0.56657106 -0.15831088
0.12522843 0.25274536 -0.43516815 -0.22737925 0.515189 -0.55916077 -0.21117277 -0.5868183
0.36517683 0.22124822 0.062295575 -0.13885432 -0.76790243 0.3347975 -0.29817238 0.4937997
-0.24219008 -0.4815758 0.5426065 0.3974815 -0.05514259
00000000: cbbd 5a3f 65d1 543e f727 95be 251e 2c3f
00000010: 8607 48be 2fd5 ecbe a27d 50bf 487a 1b3f
00000020: 365e 86bd 7c44 ad3e 0cbb 7c3f 2405 7a3f
00000030: fcaa ad3e e33e 53bf 3424 fdbe e8ac 23be
00000040: 3185 f4be 47e3 32bc 185c 97be 44f6 9b3d
00000050: eef3 bb3e 6df7 e638 cd0a 113f 3f1c 22be
00000060: e23b 003e d767 813e 5cce debe 1bd6 68be
00000070: 6de3 033f 2925 0fbf ad3d 58be b939 16bf
00000080: 75f8 ba3e e58e 623e a529 7f3d d42f 0ebe
00000090: 4195 44bf 946a ab3e 0daa 98be 50d3 fc3e
000000a0: ad00 78be 1a91 f6be 42e8 0a3f b282 cb3e
000000b0: 32dd 61bd

conv1.bias f4 [45]
0.1923537 0.08186841 -0.12705112 0.16844036 -0.053953476 -0.047374684 -0.1000883 0.08402642
-0.12327486 0.14032184 0.15400699 0.2327583 -0.09641009 -0.17822048 -0.10092003 -0.04484195
-0.08351816 0.12938769 0.11165189 -0.067589015 0.13360488 0.11421557 0.09501466 0.08370945
0.100362316 0.09466626 -0.101481475 0.2872997 -0.09089976 -0.03445959 0.016554922 -0.13115807
0.28064877 0.20250809 -0.039743323 0.1261693 -0.0011455053 0.069213405 -0.04976392 0.12045011
0.13259837 -0.048410766 -0.1188498 -0.08512415 0.19757394
00000000: 5ef8 443e a0aa a73d b019 02be a17b 2c3e
00000010: 52fe 5cbd f50b 42bd 18fb ccbd 0b16 ac3d
00000020: 8877 fcbd 87b0 0f3e 02b4 1d3e 3158 6e3e
00000030: a772 c5bd 6e7f 36be 29af cebd 31ac 37bd
00000040: 920b abbd 357e 043e bfa9 e43d 1c6c 8abd
00000050: b8cf 083e dae9 e93d 0c97 c23d dc6f ab3d
00000060: c28a cd3d 62e0 c13d 85d5 cfbd f218 933e
00000070: a729 babd 8025 0dbd 309e 873c 4d4e 06be
00000080: 32b1 8f3e 485e 4f3e e5c9 22bd 8632 013e
00000090: c824 96ba c2bf 8d3d 41d5 4bbd 8cae f63d
000000a0: dec7 073e 5e4a 46bd 8667 f3bd 9255 aebd
000000b0: d350 4a3e

conv1.lin_src.weight f4 [45, 32]
0.7039266 -0.2742157 0.19634792 0.23102006 0.2166077 0.281366 -0.04585715 -0.08357766
0.13373822 -0.0322067 -0.10661711 -0.18164012 0.17483653 0.18379965 0.16829388 -0.0412077
-0.05484329 -0.01373332 0.40139526 -0.07677425 0.37989712 -0.6301865 -0.6453783 -0.058373876
-0.30400968 -0.08369703 0.00014830257 -0.060399104 0.24176414 -0.23644911 0.022939937 -0.20218831
0.4335041 -0.2083792 0.17406237 -0.22999032 -0.20207682 -0.10794851 0.24580458 0.19302729
-0.36789775 0.035914555 0.27199018 -0.2534394 0.23028976 0.22857824 -0.012068576 -0.11988374
-0.14007102 0.15740971 -0.031830434 0.009377218 0.09453802 -0.380439 -0.42691824 -0.10085408
-0.06880352 0.23717745 0.07584887 0.07591318 -0.14555764 -0.08637134 0.28952417 0.013624659
0.24478927 -0.2418133 -0.09405949 0.087853 -0.22159678 -0.021200702 0.018024296 -0.11268946
-0.0073080068 -0.032301523 -0.2135889 -0.18210839 -0.1740379 -0.119436406 -0.06484917 0.13276379
0.027507061 0.0069235666 -0.1638947 -0.013790874 0.51189685 0.33393344 -0.29843512 -0.027565777
-0.0062855612 0.08681504 0.03156747 -0.006765698 0.2672938 -0.12075493 -0.043527197 -0.1784349
0.1362789 -0.12179258 -0.099611804 0.17750244 -0.15718445 -0.15393156 -0.03795571 -0.30130383
0.004896039 -0.08714189 -0.06505524 -0.03680002 -0.018263247 -0.24326676 -0.033904783 -0.2674371
0.11809698 0.09592359 -0.20660658 -0.18706754 -0.038477667 -0.133836 -0.31596375 -0.33427256
-0.122184545 0.009490079 0.22424899 0.19133195 -0.017743587 0.12682785 -0.26936898 -0.015571676
-0.6736558 0.21858817 -0.3135018 -0.30814883 -0.18008772 -0.048403364 -0.07412406 -0.09057953
0.1835165 -0.13191572 -0.22053064 0.07667535 -0.043798335 -0.031928375 0.17055008 0.17934166
-0.0024351743 0.2918712 -0.12686141 0.06746577 -0.3783412 -0.52250344 -0.36792597 0.33133593
0.28878048 -0.20102902 -0.0536522 -0.0005278192 -0.11366306 -0.2811946 -0.0819899 0.18487103
-0.62560266 0.1888467 -0.091576196 0.061974797 0.05825978 -0.012907931 -0.19215083 0.055382144
0.059100077 -0.059836872 -0.20725721 0.15617579 -0.063341305 -0.20537737 0.18218812 0.24890773
0.14754392 0.1883963 0.19090462 -0.30444378 0.20090161 0.26936916 0.23548715 0.28427336
-0.030899823 -0.042243104 0.103603125 0.03855992 -0.12461486 -0.076842465 -0.037173215 0.13521045
0.045414746 -0.21302275 -0.16555609 0.058972538 -0.042303603 0.14546251 0.17166767 0.064084224
0.042384453 0.16245691 -0.22079518 -0.10624806 0.20887733 -0.25742844 0.09365726 0.16807196
0.0016349726 -0.09568228 -0.120524004 -0.0212666 0.0034945451 0.4805267 0.5263222 -0.028102223
0.37986282 -0.088870354 -0.043846574 0.021400576 0.11983611 -0.07483162 -0.020351859 0.14858922
-0.21653865 0.13653907 0.18450862 -0.093650505 0.14055404 0.07540207 -0.13695563 -0.16324823
0.29860312 0.115103096 0.058948357 -0.0662235 -0.18016231 -0.085656464 0.18124303 -0.021592963
0.08269724 -0.061033223 -0.18000773 -0.06629755 -0.2423394 -0.69204336 -0.6932496 -0.0042409217
-0.2685853 0.17555822 0.041588385 -0.055342756 -0.18325473 0.14937821 0.030398857 0.007884412
00000000: 8934 343f 0066 8cbe 6e0f 493e 8690 6c3e
00000010: 69ce 5d3e 340f 903e b5d4 3bbd c42a abbd
00000020: acf2 083e 2ceb 03bd 125a dabd deff 39be
00000030: 5908 333e fa35 3c3e 3b55 2c3e 68c9 28bd
00000040: 5ca3 60bd b801 61bc ae83 cd3e d13b 9dbd
00000050: e081 c23e e753 21bf 8337 25bf 7219 6fbd
00000060: 28a7 9bbe 5969 abbd ab81 1b39 0d65 77bd
00000070: 0591 773e b71f 72be 89ec bb3c 740a 4fbe
00000080: 40f4 dd3e 5b61 55be 683d 323e 9582 6bbe
00000090: 3aed 4ebe 1c14 ddbd 32b4 7b3e f2a8 453e
000000a0: 185d bcbe 241b 133d 4c42 8b3e cfc2 81be
000000b0: 14d1 6b3e 6a10 6a3e 47bb 45bc 9b85 f5bd
000000c0: c76e 0fbe 0330 213e a160 02bd e7a2 193c
000000d0: 269d c13d e7c8 c2be 0795 dabe 958c cebd
000000e0: dce8 8cbd a5de 723e a756 9b3d 5f78 9b3d
000000f0: 100d 15be 75e3 b0bd 833c 943e f639 5f3c
00000100: 0aaa 7a3e e89d 77be 43a2 c0bd 46ec b33d
00000110: 44ea 62be 18ad adbc b0a7 933c bbc9 e6bd
00000120: 0178 efbb 9a4e 04bd 0cb7 5abe 9f7a 3abe
00000130: fe36 32be 139b f4bd a4cf 84bd 3bf3 073e
00000140: 7d56 e13c 16df e23b 03d4 27be 1ef3 61bc
00000150: ac0b 033f 53f9 aa3e 7dcc 98be a0d1 e1bc
00000160: 1cf7 cdbb 15cc b13d e44c 013d cab2 ddbb
00000170: bcda 883e 5c4e f7bd 9349 32bd a3b7 36be
00000180: b28c 0b3e 636e f9bd 4601 ccbd 33c3 353e
00000190: f6f4 20be 3ca0 1dbe 7277 1bbd 7f44 9abe
000001a0: f46e a03b 7277 b2bd af3b 85bd 9ebb 16bd
000001b0: ce9c 95bc ec1a 79be bedf 0abd 84ed 88be
000001c0: d4dc f13d 9673 c43d ad90 53be a28e 3fbe
000001d0: c29a 1dbd 4e0c 09be 00c6 a1be c625 abbe
000001e0: e43b fabd 477c 1b3c 87a1 653e 86ec 433e
000001f0: 005b 91bc 29df 013e bbea 89be 5820 7fbc
00000200: b574 2cbf 94d5 5f3e 4f83 a0be afc5 9dbe
00000210: ea68 38be 9b42 46bd 5bce 97bd c381 b9bd
00000220: c0eb 3b3e ea14 07be c9d2 61be f707 9d3d
00000230: e265 33bd 54c7 02bd aea4 2e3e 57a5 373e
00000240: 7297 1fbb 2470 953e f5e7 01be 7e2b 8a3d
00000250: f0b5 c1be c9c2 05bf cb60 bcbe dda4 a93e
00000260: 09db 933e 8dda 4dbe 69c2 5bbd 595d 0aba
00000270: 2ec8 e8bd bdf8 8fbe 52ea a7bd d54e 3d3e
00000280: 7f27 20bf 0861 413e 4d8c bbbd 49d9 7d3d
00000290: cfa1 6e3d c97b 53bc 30c3 44be 63d8 623d
000002a0: ec12 723d 8217 75bd 3c3b 54be 8cec 1f3e
000002b0: 16b9 81bd 724e 52be 868f 3a3e abe1 7e3e
000002c0: c115 173e f6ea 403e 807c 433e 0ee0 9bbe
000002d0: 27b9 4d3e c1ea 893e 8b23 713e 478c 913e
000002e0: a021 fdbc 1b07 2dbd e02d d43d 02f1 1d3d
000002f0: 1336 ffbd 955f 9dbd f142 18bd 9c74 0a3e
00000300: d004 3a3d a322 5abe 8987 29be 308d 713d
00000310: 8b46 2dbd 20f4 143e a6c9 2f3e 973e 833d
00000320: 529b 2d3d 1b5b 263e 2218 62be 9598 d9bd
00000330: f0e3 553e a9cd 83be 61cf bf3d 0e1b 2c3e
00000340: 944c d63a 12f5 c3bd 4ad5 f6bd 4b37 aebc
00000350: bd04 653b 9807 f63e 0dbd 063f a236 e6bc
00000360: 617d c23e a901 b6bd 7798 33bd 4350 af3c
00000370: a26c f53d 5241 99bd f1b8 a6bc c627 183e
00000380: 4fbc 5dbe e6d0 0b3e d4ef 3c3e d6cb bfbd
00000390: 66ed 0f3e 676c 9a3d 193e 0cbe 8b2a 27be
000003a0: 82e2 983e 2cbb eb3d d573 713d 30a0 87bd
000003b0: 787c 38be a86c afbd c697 393e bae3 b0bc
000003c0: 2c5d a93d f9fd 79bd f253 38be 03c7 87bd
000003d0: d227 78be c129 31bf ce78 31bf 6ef7 8abb
000003e0: 0384 89be 89c5 333e 9558 2a3d 16af 62bd
000003f0: 21a7 3bbe 9af6 183e 0607 f93c 9f2d 013c

conv1.lin_dst.weight f4 [45, 32]
0.7039266 -0.2742157 0.19634792 0.23102006 0.2166077 0.281366 -0.04585715 -0.08357766
0.13373822 -0.0322067 -0.10661711 -0.18164012 0.17483653 0.18379965 0.16829388 -0.0412077
-0.05484329 -0.01373332 0.40139526 -0.07677425 0.37989712 -0.6301865 -0.6453783 -0.058373876
-0.30400968 -0.08369703 0.00014830257 -0.060399104 0.24176414 -0.23644911 0.022939937 -0.20218831
0.4335041 -0.2083792 0.17406237 -0.22999032 -0.20207682 -0.10794851 0.24580458 0.19302729
-0.36789775 0.035914555 0.27199018 -0.2534394 0.23028976 0.22857824 -0.012068576 -0.11988374
-0.14007102 0.15740971 -0.031830434 0.009377218 0.09453802 -0.380439 -0.42691824 -0.10085408
-0.06880352 0.23717745 0.07584887 0.07591318 -0.14555764 -0.08637134 0.28952417 0.013624659
0.24478927 -0.2418133 -0.09405949 0.087853 -0.22159678 -0.021200702 0.018024296 -0.11268946
-0.0073080068 -0.032301523 -0.2135889 -0.18210839 -0.1740379 -0.119436406 -0.06484917 0.13276379
0.027507061 0.0069235666 -0.1638947 -0.013790874 0.51189685 0.33393344 -0.29843512 -0.027565777
-0.0062855612 0.08681504 0.03156747 -0.006765698 0.2672938 -0.12075493 -0.043527197 -0.1784349
0.1362789 -0.12179258 -0.099611804 0.17750244 -0.15718445 -0.15393156 -0.03795571 -0.30130383
0.004896039 -0.08714189 -0.06505524 -0.03680002 -0.018263247 -0.24326676 -0.033904783 -0.2674371
0.11809698 0.09592359 -0.20660658 -0.18706754 -0.038477667 -0.133836 -0.31596375 -0.33427256
-0.122184545 0.009490079 0.22424899 0.19133195 -0.017743587 0.12682785 -0.26936898 -0.015571676
-0.6736558 0.21858817 -0.3135018 -0.30814883 -0.18008772 -0.048403364 -0.07412406 -0.09057953
0.1835165 -0.13191572 -0.22053064 0.07667535 -0.043798335 -0.031928375 0.17055008 0.17934166
-0.0024351743 0.2918712 -0.12686141 0.06746577 -0.3783412 -0.52250344 -0.36792597 0.33133593
0.28878048 -0.20102902 -0.0536522 -0.0005278192 -0.11366306 -0.2811946 -0.0819899 0.18487103
-0.62560266 0.1888467 -0.091576196 0.061974797 0.05825978 -0.012907931 -0.19215083 0.055382144
0.059100077 -0.059836872 -0.20725721 0.15617579 -0.063341305 -0.20537737 0.18218812 0.24890773
0.14754392 0.1883963 0.19090462 -0.30444378 0.20090161 0.26936916 0.23548715 0.28427336
-0.030899823 -0.042243104 0.103603125 0.03855992 -0.12461486 -0.076842465 -0.037173215 0.13521045
0.045414746 -0.21302275 -0.16555609 0.058972538 -0.042303603 0.14546251 0.17166767 0.064084224
0.042384453 0.16245691 -0.22079518 -0.10624806 0.20887733 -0.25742844 0.09365726 0.16807196
0.0016349726 -0.09568228 -0.120524004 -0.0212666 0.0034945451 0.4805267 0.5263222 -0.028102223
0.37986282 -0.088870354 -0.043846574 0.021400576 0.11983611 -0.07483162 -0.020351859 0.14858922
-0.21653865 0.13653907 0.18450862 -0.093650505 0.14055404 0.07540207 -0.13695563 -0.16324823
0.29860312 0.115103096 0.058948357 -0.0662235 -0.18016231 -0.085656464 0.18124303 -0.021592963
0.08269724 -0.061033223 -0.18000773 -0.06629755 -0.2423394 -0.69204336 -0.6932496 -0.0042409217
-0.2685853 0.17555822 0.041588385 -0.055342756 -0.18325473 0.14937821 0.030398857 0.007884412
00000000: 8934 343f 0066 8cbe 6e0f 493e 8690 6c3e
00000010: 69ce 5d3e 340f 903e b5d4 3bbd c42a abbd
00000020: acf2 083e 2ceb 03bd 125a dabd deff 39be
00000030: 5908 333e fa35 3c3e 3b55 2c3e 68c9 28bd
00000040: 5ca3 60bd b801 61bc ae83 cd3e d13b 9dbd
00000050: e081 c23e e753 21bf 8337 25bf 7219 6fbd
00000060: 28a7 9bbe 5969 abbd ab81 1b39 0d65 77bd
00000070: 0591 773e b71f 72be 89ec bb3c 740a 4fbe
00000080: 40f4 dd3e 5b61 55be 683d 323e 9582 6bbe
00000090: 3aed 4ebe 1c14 ddbd 32b4 7b3e f2a8 453e
000000a0: 185d bcbe 241b 133d 4c42 8b3e cfc2 81be
000000b0: 14d1 6b3e 6a10 6a3e 47bb 45bc 9b85 f5bd
000000c0: c76e 0fbe 0330 213e a160 02bd e7a2 193c
000000d0: 269d c13d e7c8 c2be 0795 dabe 958c cebd
000000e0: dce8 8cbd a5de 723e a756 9b3d 5f78 9b3d
000000f0: 100d 15be 75e3 b0bd 833c 943e f639 5f3c
00000100: 0aaa 7a3e e89d 77be 43a2 c0bd 46ec b33d
00000110: 44ea 62be 18ad adbc b0a7 933c bbc9 e6bd
00000120: 0178 efbb 9a4e 04bd 0cb7 5abe 9f7a 3abe
00000130: fe36 32be 139b f4bd a4cf 84bd 3bf3 073e
00000140: 7d56 e13c 16df e23b 03d4 27be 1ef3 61bc
00000150: ac0b 033f 53f9 aa3e 7dcc 98be a0d1 e1bc
00000160: 1cf7 cdbb 15cc b13d e44c 013d cab2 ddbb
00000170: bcda 883e 5c4e f7bd 9349 32bd a3b7 36be
00000180: b28c 0b3e 636e f9bd 4601 ccbd 33c3 353e
00000190: f6f4 20be 3ca0 1dbe 7277 1bbd 7f44 9abe
000001a0: f46e a03b 7277 b2bd af3b 85bd 9ebb 16bd
000001b0: ce9c 95bc ec1a 79be bedf 0abd 84ed 88be
000001c0: d4dc f13d 9673 c43d ad90 53be a28e 3fbe
000001d0: c29a 1dbd 4e0c 09be 00c6 a1be c625 abbe
000001e0: e43b fabd 477c 1b3c 87a1 653e 86ec 433e
000001f0: 005b 91bc 29df 013e bbea 89be 5820 7fbc
00000200: b574 2cbf 94d5 5f3e 4f83 a0be afc5 9dbe
00000210: ea68 38be 9b42 46bd 5bce 97bd c381 b9bd
00000220: c0eb 3b3e ea14 07be c9d2 61be f707 9d3d
00000230: e265 33bd 54c7 02bd aea4 2e3e 57a5 373e
00000240: 7297 1fbb 2470 953e f5e7 01be 7e2b 8a3d
00000250: f0b5 c1be c9c2 05bf cb60 bcbe dda4 a93e
00000260: 09db 933e 8dda 4dbe 69c2 5bbd 595d 0aba
00000270: 2ec8 e8bd bdf8 8fbe 52ea a7bd d54e 3d3e
00000280: 7f27 20bf 0861 413e 4d8c bbbd 49d9 7d3d
00000290: cfa1 6e3d c97b 53bc 30c3 44be 63d8 623d
000002a0: ec12 723d 8217 75bd 3c3b 54be 8cec 1f3e
000002b0: 16b9 81bd 724e 52be 868f 3a3e abe1 7e3e
000002c0: c115 173e f6ea 403e 807c 433e 0ee0 9bbe
000002d0: 27b9 4d3e c1ea 893e 8b23 713e 478c 913e
000002e0: a021 fdbc 1b07 2dbd e02d d43d 02f1 1d3d
000002f0: 1336 ffbd 955f 9dbd f142 18bd 9c74 0a3e
00000300: d004 3a3d a322 5abe 8987 29be 308d 713d
00000310: 8b46 2dbd 20f4 143e a6c9 2f3e 973e 833d
00000320: 529b 2d3d 1b5b 263e 2218 62be 9598 d9bd
00000330: f0e3 553e a9cd 83be 61cf bf3d 0e1b 2c3e
00000340: 944c d63a 12f5 c3bd 4ad5 f6bd 4b37 aebc
00000350: bd04 653b 9807 f63e 0dbd 063f a236 e6bc
00000360: 617d c23e a901 b6bd 7798 33bd 4350 af3c
00000370: a26c f53d 5241 99bd f1b8 a6bc c627 183e
00000380: 4fbc 5dbe e6d0 0b3e d4ef 3c3e d6cb bfbd
00000390: 66ed 0f3e 676c 9a3d 193e 0cbe 8b2a 27be
000003a0: 82e2 983e 2cbb eb3d d573 713d 30a0 87bd
000003b0: 787c 38be a86c afbd c697 393e bae3 b0bc
000003c0: 2c5d a93d f9fd 79bd f253 38be 03c7 87bd
000003d0: d227 78be c129 31bf ce78 31bf 6ef7 8abb
000003e0: 0384 89be 89c5 333e 9558 2a3d 16af 62bd
000003f0: 21a7 3bbe 9af6 183e 0607 f93c 9f2d 013c

conv2.att_src f4 [1, 3, 15]
0.05913781 0.2833003 -0.14409769 0.25321367 -0.13406819 0.11895346 0.4711493 -0.15860544
-0.31520218 0.1509084 -0.14636795 -0.4408652 0.35244498 0.32894504 0.24566182 0.009212702
0.13827293 -0.58507705 -0.2541096 -0.063884094 0.16344184 0.4221592 0.26203972 0.40955487
-0.58953726 0.28804952 0.13061523 -0.40864307 -0.599712 0.58045363 -0.19065161 -0.5402744
-0.32033658 0.17062654 0.36021617 0.04673954 0.072237425 -0.07548797 0.10197375 -0.06595131
0.54102534 0.21839817 -0.21835619 0.15442125 -0.1689352
00000000: 7d3a 723d bd0c 913e 588e 13be 39a5 813e
00000010: 2c49 09be df9d f33d 7b3a f13e 7769 22be
00000020: 2e62 a1be bb87 1a3e 7be1 15be 15b9 e1be
00000030: ab73 b43e 7c6b a83e c68e 7b3e dff0 163c
00000040: 6b97 0d3e 9cc7 15bf a71a 82be aad5 82bd
00000050: 4c5d 273e 4025 d83e 122a 863e 2db1 d13e
00000060: eaeb 16bf 3a7b 933e 00c0 053e aa39 d1be
00000070: ba86 19bf 9c98 143f 2d3a 43be 6c4f 0abf
00000080: 2803 a4be b9b8 2e3e 416e b83e f671 3f3d
00000090: 37f1 933d 7099 9abd 9dd7 d03d 7b11 87bd
000000a0: a380 0a3f c5a3 5f3e c498 5fbe 9b20 1e3e
000000b0: 59fd 2cbe

conv2.att_dst f4 [1, 3, 15]
-0.42717993 -0.22121459 0.5285953 0.334299 -0.5815935 0.5520697 -0.48069024 0.3885384
0.039882246 -0.18217207 -0.012811965 -0.32753724 0.57250476 -0.26306862 -0.19493775 -0.62257254
0.4271343 0.25782958 -0.06660196 -0.31306192 0.08178698 -0.17900306 0.42616823 0.04373745
-0.133057 0.5617325 0.18641101 0.011707466 0.14730217 0.1568592 -0.2937213 0.48974365
0.22874816 0.0776438 -0.023245722 -0.8362089 -0.8068737 -0.25255555 -0.69340193 -0.3304516
-0.07112546 0.07672436 0.3470123 -0.62105006 -0.3853993
00000000: 54b7 dabe 1486 62be 0652 073f 3d29 ab3e
00000010: 50e3 14bf 7154 0d3f 081d f6be 81ee c63e
00000020: 915b 233d 518b 3abe 47e9 51bc f6b2 a7be
00000030: ac8f 123f eeb0 86be c39d 47be ea60 1fbf
00000040: 59b1 da3e 3d02 843e 9c66 88bd a749 a0be
00000050: ef7f a73d 944c 37be b932 da3e 0a26 333d
00000060: 1840 08be b3cd 0f3f 87e2 3e3e acd0 3f3c
00000070: 61d6 163e b39f 203e a362 96be aebf fa3e
00000080: f53c 6a3e b603 9f3d d06d bebc c911 56bf
00000090: 468f 4ebf f64e 81be ca82 31bf f430 a9be
000000a0: 3aaa 91bd a921 9d3d 99ab b13e 23fd 1ebf
000000b0: 0f53 c5be

conv2.bias f4 [45]
0.12784646 0.09094391 -0.07944998 -0.06681019 0.07745113 -0.08017933 0.071950495 0.08752134
0.0771796 0.07908145 -0.06683958 -0.075461425 -0.08406679 -0.06671911 -0.07917542 0.07191355
0.028241001 -0.08548808 -0.093742095 0.12427477 0.08155637 0.08459147 0.07601399 -0.065671265
0.08178974 -0.14376816 -0.06519607 0.12292973 0.09199072 0.12079494 0.115414195 -0.077941604
-0.09182146 -0.07045007 -0.10025346 0.089559145 0.12049786 0.08907729 0.1251097 -0.10805213
-0.107763276 -0.06523939 0.07456363 0.10068983 -0.07088769
00000000: 2fea 023e cd40 ba3d acb6 a2bd c8d3 88bd
00000010: b39e 9e3d 1035 a4bd c85a 933d 633e b33d
00000020: 5710 9e3d 75f5 a13d 31e3 88bd 858b 9abd
00000030: 362b acbd 07a4 88bd b926 a2bd 6947 933d
00000040: ac59 e73c 6014 afbd dbfb bfbd c583 fe3d
00000050: 0707 a73d 4b3e ad3d 39ad 9b3d a87e 86bd
00000060: 6181 a73d f637 13be 8485 85bd 95c2 fb3d
00000070: a165 bc3d 5663 f73d 475e ec3d d99f 9fbd
00000080: e40c bcbd 2048 90bd b051 cdbd c96a b73d
00000090: 95c7 f63d 276e b63d c21c 003e 6f4a ddbd
000000a0: feb2 dcbd 3b9c 85bd d1b4 983d 7836 ce3d
000000b0: 912d 91bd

conv2.lin_src.weight f4 [45, 45]
0.3556393 0.16581823 0.15551348 0.36055493 0.22474265 0.0522113 -0.24248822 0.18797293
-0.106084146 0.41875955 -0.0860957 0.5272899 -0.43153512 -0.18948515 -0.17293063 -0.22428685
0.22998437 0.08524916 0.13363196 -0.010071517 0.01503992 -0.01552905 0.18652418 -0.18489596
0.3632404 0.21808673 -0.051385116 0.22377682 0.028775644 0.0475903 0.21393658 -0.048468284
0.29650116 -0.097254716 0.0008541125 -0.034785427 0.0060205567 0.07982103 -0.07094658 0.12681209
-0.022391789 0.16638087 -0.15023558 -0.1871917 0.13235047 -0.03910977 0.33683228 -0.10188542
-0.07650186 0.28841773 -0.30810326 -0.10613647 0.3438032 -0.37787917 -0.19309446 0.2544276
0.29181036 -0.009259863 -0.15629923 -0.05476295 0.03909863 -0.25809884 0.2266598 0.016726084
-0.20712101 0.08917448 0.06740152 0.2276841 -0.18700005 -0.07966285 0.1350046 0.047970604
0.124478824 -0.11628496 0.17580384 0.2065789 -0.12097236 0.13579783 0.16131106 -0.19711436
0.0025024384 0.1025448 -0.19381924 -0.03971384 -0.23140241 0.20166044 -0.023463802 -0.3212681
0.15800983 0.24808256 0.112216435 0.09534551 0.07369559 -0.22049518 -0.20322345 -0.065198824
-0.0019457318 -0.12621339 0.25536463 -0.2711339 0.0748004 -0.021750366 0.13171619 0.07477928
0.18496841 -0.13214861 0.011451081 0.005620326 0.016097423 0.011252105 0.026267197 -0.30474022
0.18142088 -0.20622568 0.011189273 -0.08897962 -0.09002301 -0.108751215 -0.011077995 0.24807365
0.20212173 0.13137805 -0.1034874 0.17104305 -0.23488048 0.120907806 0.08559769 0.15645109
0.21669117 0.036698803 0.0401606 0.11582809 -0.10932224 0.30129322 -0.022516588 0.05837215
-0.21077281 0.1756481 0.011098707 -0.18420255 0.09307315 0.09339549 0.071671665 0.032221407
-0.1650607 -0.40835896 0.06790738 0.27056366 0.07036028 -0.2608493 -0.17901255 -0.15276435
0.098334126 -0.14579755 -0.14345539 -0.12383904 -0.24184133 0.058500092 0.056014404 -0.28890836
0.15814415 0.01352241 -0.2501133 0.015862677 0.020112365 0.07848179 -0.11593568 0.15904416
0.17080763 0.21030495 -0.06527523 -0.032167666 -0.2122499 0.22016692 -0.012388866 -0.08574991
-0.08772899 -0.18741257 -0.22937246 0.06831009 -0.111836374 -0.011159187 0.22845139 0.1470871
-0.1775376 0.0033403214 -0.17459668 0.16435575 -0.19119984 0.25834572 0.19567603 0.33776486
0.010495739 -0.08887271 -0.23322347 0.20915747 -0.17199038 0.23144804 0.025275275 0.14692546
-0.09530037 0.053229872 -0.03153434 0.22625153 -0.063709706 0.19657728 -0.19278075 0.2178865
-0.20600984 -0.09895539 0.15852514 0.15457053 0.10336093 -0.16016819 -0.18038741 0.117743164
0.18048757 0.11005894 -0.24195303 -0.17851621 0.13220021 0.20688786 0.10489061 -0.03529852
-0.06972782 -0.21545622 -0.08988657 -0.11633849 0.06265963 -0.08323492 -0.041878153 0.031556822
0.044933174 0.03081113 -0.12490943 -0.07546565 -0.49047834 0.16505587 0.23244028 -0.028415237
-0.009960035 -0.16889328 -0.25076187 -0.014445302 -0.017764824 -0.12115809 0.12418192 0.05378241
0.22586238 -0.31767267 0.027373437 -0.2438468 -0.33124116 -0.027532464 0.025273649 0.11453944
00000000: 5b16 b63e 41cc 293e ed3e 1f3e a89a b83e
00000010: f022 663e 84db 553d d54e 78be fa7b 403e
00000020: a542 d9bd a767 d63e f152 b0bd 79fc 063f
00000030: 2cf2 dcbe 6508 42be ba14 31be 74ab 65be
00000040: 0681 6b3e 1d97 ae3d d1d6 083e 0103 25bc
00000050: ff69 763c 8e6d 7ebc 3200 3f3e 5e55 3dbe
00000060: a5fa b93e 2152 5f3e 3379 52bd c025 653e
00000070: e6ba eb3c 0cee 423d 3112 5b3e ae86 46bd
00000080: 00cf 973e 7b2d c7bd 85e6 5f3a 2a7b 0ebd
00000090: 1748 c53b 3579 a33d 714c 91bd 07db 013e
000000a0: fc6e b7bc bf5f 2a3e 5bd7 19be 2eaf 3fbe
000000b0: e286 073e 9131 20bd 4875 ac3e 4ea9 d0bd
000000c0: 02ad 9cbd 7dab 933e b6bf 9dbe 145e d9bd
000000d0: f906 b03e 6179 c1be 8eba 45be 5644 823e
000000e0: 2b68 953e aeb6 17bc e80c 20be 1d4f 60bd
000000f0: e325 203d 8825 84be 8219 683e 2405 893c
00000100: 8817 54be 1ca1 b63d cf09 8a3d 0526 693e
00000110: f17c 3fbe 4726 a3bd a53e 0a3e d37c 443d
00000120: c1ee fe3d cf26 eebd ec05 343e 6b89 533e
00000130: 5bc0 f7bd 960e 0b3e ba2e 253e 59d8 49be
00000140: f3ff 233b 0203 d23d 8d78 46be fbaa 22bd
00000150: c1f4 6cbe 1380 4e3e 2937 c0bc 417d a4be
00000160: 54cd 213e 5b09 7e3e bbd1 e53d 8244 c33d
00000170: b7ed 963d 7dc9 61be cf19 50be f686 85bd
00000180: ed07 ffba 153e 01be 27bf 823e 10d2 8abe
00000190: f430 993d d32d b2bc 9ce0 063e e125 993d
000001a0: 5c68 3d3e f751 07be 519d 3b3c b62a b83b
000001b0: bede 833c c05a 383c 4e2e d73c e906 9cbe
000001c0: 65c6 393e d32c 53be 3653 373c f23a b6bd
000001d0: fc5d b8bd f5b8 debd 7b80 35bc 0507 7e3e
000001e0: 00f9 4e3e f887 063e 34f1 d3bd e925 2f3e
000001f0: 8284 70be 839e f73d d74d af3d b734 203e
00000200: 4ae4 5d3e 7c51 163d 717f 243d 4737 ed3d
00000210: 57e4 dfbd 1b43 9a3e b574 b8bc a317 6f3d
00000220: d4d4 57be 18dd 333e 5ad7 353c 989f 3cbe
00000230: 239d be3d 2246 bf3d 98c8 923d 98fa 033d
00000240: ac05 29be 6d14 d1be 0613 8b3d 5287 8a3e
00000250: 0d19 903d 0a8e 85be 114f 37be 426e 1cbe
00000260: 6763 c93d f44b 15be f8e5 12be 539f fdbd
00000270: 41a5 77be cb9d 6f3d 5c6f 653d cceb 93be
00000280: 8af0 213e 198d 5d3c da0e 80be 72f2 813c
00000290: b0c2 a43c 10bb a03d b06f edbd 79dc 223e
000002a0: 32e8 2e3e 2e5a 573e 05af 85bd 3ec2 03bd
000002b0: 0a58 59be 7073 613e acfa 4abc a69d afbd
000002c0: 42ab b3bd 15e9 3fbe 9de0 6abe 29e6 8b3d
000002d0: 780a e5bd 06d5 36bc 29ef 693e 009e 163e
000002e0: 6bcc 35be 4be9 5a3b 79c9 32be e04c 283e
000002f0: e4c9 43be e445 843e 4c5f 483e 84ef ac3e
00000300: 52f6 2b3c e502 b6bd 22d2 6ebe 602d 563e
00000310: 3f1e 30be b700 6d3e 180e cf3c a173 163e
00000320: d72c c3bd 9107 5a3d 272a 01bd 7bae 673e
00000330: 3c7a 82bd 8e4b 493e 5168 45be a31d 5f3e
00000340: 3ef4 52be 20a9 cabd 6a54 223e bd47 1e3e
00000350: e5ae d33d 2103 24be 7ab7 38be 5423 f13d
00000360: bcd1 383e 9566 e13d 89c2 77be f4cc 36be
00000370: 7e5f 073e 69da 533e e3d0 d63d 2e95 10bd
00000380: 76cd 8ebd 8ea0 5cbe 7316 b8bd e042 eebd
00000390: b153 803d 1277 aabd 6d88 2bbd ba41 013d
000003a0: d90b 383d 9f67 fc3c 84d0 ffbd bc8d 9abd
000003b0: fa1f fbbe 6804 293e d304 6e3e 12c7 e8bc
000003c0: 6a2f 23bc 5cf2 2cbe dc63 80be fdab 6cbc
000003d0: 8987 91bc bc21 f8bd 1753 fe3d f24a 5c3d
000003e0: 7848 673e fea5 a2be 423e e03c fab2 79be
000003f0: 7198 a9be c38b e1bc af0a cf3c a793 ea3d

conv2.lin_dst.weight f4 [45, 45]
0.3556393 0.16581823 0.15551348 0.36055493 0.22474265 0.0522113 -0.24248822 0.18797293
-0.106084146 0.41875955 -0.0860957 0.5272899 -0.43153512 -0.18948515 -0.17293063 -0.22428685
0.22998437 0.08524916 0.13363196 -0.010071517 0.01503992 -0.01552905 0.18652418 -0.18489596
0.3632404 0.21808673 -0.051385116 0.22377682 0.028775644 0.0475903 0.21393658 -0.048468284
0.29650116 -0.097254716 0.0008541125 -0.034785427 0.0060205567 0.07982103 -0.07094658 0.12681209
-0.022391789 0.16638087 -0.15023558 -0.1871917 0.13235047 -0.03910977 0.33683228 -0.10188542
-0.07650186 0.28841773 -0.30810326 -0.10613647 0.3438032 -0.37787917 -0.19309446 0.2544276
0.29181036 -0.009259863 -0.15629923 -0.05476295 0.03909863 -0.25809884 0.2266598 0.016726084
-0.20712101 0.08917448 0.06740152 0.2276841 -0.18700005 -0.07966285 0.1350046 0.047970604
0.124478824 -0.11628496 0.17580384 0.2065789 -0.12097236 0.13579783 0.16131106 -0.19711436
0.0025024384 0.1025448 -0.19381924 -0.03971384 -0.23140241 0.20166044 -0.023463802 -0.3212681
0.15800983 0.24808256 0.112216435 0.09534551 0.07369559 -0.22049518 -0.20322345 -0.065198824
-0.0019457318 -0.12621339 0.25536463 -0.2711339 0.0748004 -0.021750366 0.13171619 0.07477928
0.18496841 -0.13214861 0.011451081 0.005620326 0.016097423 0.011252105 0.026267197 -0.30474022
0.18142088 -0.20622568 0.011189273 -0.08897962 -0.09002301 -0.108751215 -0.011077995 0.24807365
0.20212173 0.13137805 -0.1034874 0.17104305 -0.23488048 0.120907806 0.08559769 0.15645109
0.21669117 0.036698803 0.0401606 0.11582809 -0.10932224 0.30129322 -0.022516588 0.05837215
-0.21077281 0.1756481 0.011098707 -0.18420255 0.09307315 0.09339549 0.071671665 0.032221407
-0.1650607 -0.40835896 0.06790738 0.27056366 0.07036028 -0.2608493 -0.17901255 -0.15276435
0.098334126 -0.14579755 -0.14345539 -0.12383904 -0.24184133 0.058500092 0.056014404 -0.28890836
0.15814415 0.01352241 -0.2501133 0.015862677 0.020112365 0.07848179 -0.11593568 0.15904416
0.17080763 0.21030495 -0.06527523 -0.032167666 -0.2122499 0.22016692 -0.012388866 -0.08574991
-0.08772899 -0.18741257 -0.22937246 0.06831009 -0.111836374 -0.011159187 0.22845139 0.1470871
-0.1775376 0.0033403214 -0.17459668 0.16435575 -0.19119984 0.25834572 0.19567603 0.33776486
0.010495739 -0.08887271 -0.23322347 0.20915747 -0.17199038 0.23144804 0.025275275 0.14692546
-0.09530037 0.053229872 -0.03153434 0.22625153 -0.063709706 0.19657728 -0.19278075 0.2178865
-0.20600984 -0.09895539 0.15852514 0.15457053 0.10336093 -0.16016819 -0.18038741 0.117743164
0.18048757 0.11005894 -0.24195303 -0.17851621 0.13220021 0.20688786 0.10489061 -0.03529852
-0.06972782 -0.21545622 -0.08988657 -0.11633849 0.06265963 -0.08323492 -0.041878153 0.031556822
0.044933174 0.03081113 -0.12490943 -0.07546565 -0.49047834 0.16505587 0.23244028 -0.028415237
-0.009960035 -0.16889328 -0.25076187 -0.014445302 -0.017764824 -0.12115809 0.12418192 0.05378241
0.22586238 -0.31767267 0.027373437 -0.2438468 -0.33124116 -0.027532464 0.025273649 0.11453944
00000000: 5b16 b63e 41cc 293e ed3e 1f3e a89a b83e
00000010: f022 663e 84db 553d d54e 78be fa7b 403e
00000020: a542 d9bd a767 d63e f152 b0bd 79fc 063f
00000030: 2cf2 dcbe 6508 42be ba14 31be 74ab 65be
00000040: 0681 6b3e 1d97 ae3d d1d6 083e 0103 25bc
00000050: ff69 763c 8e6d 7ebc 3200 3f3e 5e55 3dbe
00000060: a5fa b93e 2152 5f3e 3379 52bd c025 653e
00000070: e6ba eb3c 0cee 423d 3112 5b3e ae86 46bd
00000080: 00cf 973e 7b2d c7bd 85e6 5f3a 2a7b 0ebd
00000090: 1748 c53b 3579 a33d 714c 91bd 07db 013e
000000a0: fc6e b7bc bf5f 2a3e 5bd7 19be 2eaf 3fbe
000000b0: e286 073e 9131 20bd 4875 ac3e 4ea9 d0bd
000000c0: 02ad 9cbd 7dab 933e b6bf 9dbe 145e d9bd
000000d0: f906 b03e 6179 c1be 8eba 45be 5644 823e
000000e0: 2b68 953e aeb6 17bc e80c 20be 1d4f 60bd
000000f0: e325 203d 8825 84be 8219 683e 2405 893c
00000100: 8817 54be 1ca1 b63d cf09 8a3d 0526 693e
00000110: f17c 3fbe 4726 a3bd a53e 0a3e d37c 443d
00000120: c1ee fe3d cf26 eebd ec05 343e 6b89 533e
00000130: 5bc0 f7bd 960e 0b3e ba2e 253e 59d8 49be
00000140: f3ff 233b 0203 d23d 8d78 46be fbaa 22bd
00000150: c1f4 6cbe 1380 4e3e 2937 c0bc 417d a4be
00000160: 54cd 213e 5b09 7e3e bbd1 e53d 8244 c33d
00000170: b7ed 963d 7dc9 61be cf19 50be f686 85bd
00000180: ed07 ffba 153e 01be 27bf 823e 10d2 8abe
00000190: f430 993d d32d b2bc 9ce0 063e e125 993d
000001a0: 5c68 3d3e f751 07be 519d 3b3c b62a b83b
000001b0: bede 833c c05a 383c 4e2e d73c e906 9cbe
000001c0: 65c6 393e d32c 53be 3653 373c f23a b6bd
000001d0: fc5d b8bd f5b8 debd 7b80 35bc 0507 7e3e
000001e0: 00f9 4e3e f887 063e 34f1 d3bd e925 2f3e
000001f0: 8284 70be 839e f73d d74d af3d b734 203e
00000200: 4ae4 5d3e 7c51 163d 717f 243d 4737 ed3d
00000210: 57e4 dfbd 1b43 9a3e b574 b8bc a317 6f3d
00000220: d4d4 57be 18dd 333e 5ad7 353c 989f 3cbe
00000230: 239d be3d 2246 bf3d 98c8 923d 98fa 033d
00000240: ac05 29be 6d14 d1be 0613 8b3d 5287 8a3e
00000250: 0d19 903d 0a8e 85be 114f 37be 426e 1cbe
00000260: 6763 c93d f44b 15be f8e5 12be 539f fdbd
00000270: 41a5 77be cb9d 6f3d 5c6f 653d cceb 93be
00000280: 8af0 213e 198d 5d3c da0e 80be 72f2 813c
00000290: b0c2 a43c 10bb a03d b06f edbd 79dc 223e
000002a0: 32e8 2e3e 2e5a 573e 05af 85bd 3ec2 03bd
000002b0: 0a58 59be 7073 613e acfa 4abc a69d afbd
000002c0: 42ab b3bd 15e9 3fbe 9de0 6abe 29e6 8b3d
000002d0: 780a e5bd 06d5 36bc 29ef 693e 009e 163e
000002e0: 6bcc 35be 4be9 5a3b 79c9 32be e04c 283e
000002f0: e4c9 43be e445 843e 4c5f 483e 84ef ac3e
00000300: 52f6 2b3c e502 b6bd 22d2 6ebe 602d 563e
00000310: 3f1e 30be b700 6d3e 180e cf3c a173 163e
00000320: d72c c3bd 9107 5a3d 272a 01bd 7bae 673e
00000330: 3c7a 82bd 8e4b 493e 5168 45be a31d 5f3e
00000340: 3ef4 52be 20a9 cabd 6a54 223e bd47 1e3e
00000350: e5ae d33d 2103 24be 7ab7 38be 5423 f13d
00000360: bcd1 383e 9566 e13d 89c2 77be f4cc 36be
00000370: 7e5f 073e 69da 533e e3d0 d63d 2e95 10bd
00000380: 76cd 8ebd 8ea0 5cbe 7316 b8bd e042 eebd
00000390: b153 803d 1277 aabd 6d88 2bbd ba41 013d
000003a0: d90b 383d 9f67 fc3c 84d0 ffbd bc8d 9abd
000003b0: fa1f fbbe 6804 293e d304 6e3e 12c7 e8bc
000003c0: 6a2f 23bc 5cf2 2cbe dc63 80be fdab 6cbc
000003d0: 8987 91bc bc21 f8bd 1753 fe3d f24a 5c3d
000003e0: 7848 673e fea5 a2be 423e e03c fab2 79be
000003f0: 7198 a9be c38b e1bc af0a cf3c a793 ea3d

conv3.att_src f4 [1, 1, 2]
-0.035069086 0.05296687
00000000: 9aa4 0fbd caf3 583d

conv3.att_dst f4 [1, 1, 2]
1.3331819 -0.81009233
00000000: b4a5 aa3f 3662 4fbf

conv3.bias f4 [2]
0.17507882 -0.15787886
00000000: dd47 333e ffaa 21be

conv3.lin_src.weight f4 [2, 45]
0.23873182 0.33153158 -0.26319847 -0.20740585 0.3181501 -0.47272488 0.0774666 0.52754104
0.30346057 0.047020443 -0.33408436 -0.30815694 -0.38465798 -0.050668396 -0.2674429 0.36199534
-0.17017314 -0.11910686 0.07957459 0.037961774 0.32669327 0.07529625 0.47190407 0.06314164
0.3784497 -0.27951765 -0.13864046 0.45449468 0.1594559 0.1516236 -0.034875117 -0.028206263
-0.043252498 -0.22417112 -0.102377355 0.55927455 0.05256517 0.18968125 0.33204767 0.078265816
-0.42276195 0.019429242 0.4515361 0.41070402 -0.44387707 -0.29165658 -0.16407408 0.0018459022
0.045083087 -0.036021892 0.40091708 -0.34307867 -0.4416159 -0.092913575 -0.39474618 0.34077314
0.31408226 -0.05633446 0.27954975 -0.1562051 -0.07474046 -0.30277067 0.04178117 0.1529397
-0.24035624 0.12652682 -0.032639712 0.08193044 0.32860684 -0.40381306 -0.20191072 0.24828039
-0.4306849 -0.3994696 -0.07502522 -0.38572192 0.37255985 0.24766529 0.27443895 0.1436134
-0.49515775 -0.49247646 -0.3084824 -0.025613157 0.479301 -0.14198765 0.35188413 -0.21020572
-0.24664304 0.25251335
00000000: 1d76 743e 82be a93e f3c1 86be 3362 54be
00000010: 92e4 a23e ff08 f2be cfa6 9e3d ee0c 073f
00000020: 2f5f 9b3e 8298 403d 1b0d abbe bfc6 9dbe
00000030: e4f1 c4be aa89 4fbd 47ee 88be 7457 b93e
00000040: de41 2ebe 4cee f3bd 01f8 a23d ce7d 1b3d
00000050: 5744 a73e ec34 9a3d 699d f13e 6750 813d
00000060: 29c4 c13e f01c 8fbe c4f7 0dbe 87b3 e83e
00000070: 6848 233e 3843 1b3e 36d9 0ebd d210 e7bc
00000080: 8829 31bd 1d8d 65be 38ab d1bd 9e2c 0f3f
00000090: 934e 573d cd3b 423e 2702 aa3e d449 a03d
000000a0: 4174 d8be 132a 9f3c bd2f e73e cc47 d23e
000000b0: db43 e3be 0354 95be 0903 28be 33f2 f13a
000000c0: 0ba9 383d b18b 13bd 0145 cd3e 02a8 afbe
000000d0: 7b1b e2be 7949 bebd 2c1c cabe d179 ae3e
000000e0: 64cf a03e f6be 66bd 2521 8f3e 3bf4 1fbe
000000f0: 8711 99bd c204 9bbe bb22 2b3d 3a9c 1c3e
00000100: f21f 76be 3f90 013e 38b1 05bd 26cb a73d
00000110: 283f a83e 96c0 cebe afc1 4ebe 373d 7e3e
00000120: bb82 dcbe 4887 ccbe d3a6 99bd 587d c5be
00000130: 2ac0 be3e f89b 7d3e 4383 8c3e 640f 133e
00000140: 5185 fdbe e025 fcbe 68f1 9dbe afd2 d1bc
00000150: f166 f53e 3665 11be 282a b43e 2b40 57be
00000160: fe8f 7cbe 6e49 813e

conv3.lin_dst.weight f4 [2, 45]
0.23873182 0.33153158 -0.26319847 -0.20740585 0.3181501 -0.47272488 0.0774666 0.52754104
0.30346057 0.047020443 -0.33408436 -0.30815694 -0.38465798 -0.050668396 -0.2674429 0.36199534
-0.17017314 -0.11910686 0.07957459 0.037961774 0.32669327 0.07529625 0.47190407 0.06314164
0.3784497 -0.27951765 -0.13864046 0.45449468 0.1594559 0.1516236 -0.034875117 -0.028206263
-0.043252498 -0.22417112 -0.102377355 0.55927455 0.05256517 0.18968125 0.33204767 0.078265816
-0.42276195 0.019429242 0.4515361 0.41070402 -0.44387707 -0.29165658 -0.16407408 0.0018459022
0.045083087 -0.036021892 0.40091708 -0.34307867 -0.4416159 -0.092913575 -0.39474618 0.34077314
0.31408226 -0.05633446 0.27954975 -0.1562051 -0.07474046 -0.30277067 0.04178117 0.1529397
-0.24035624 0.12652682 -0.032639712 0.08193044 0.32860684 -0.40381306 -0.20191072 0.24828039
-0.4306849 -0.3994696 -0.07502522 -0.38572192 0.37255985 0.24766529 0.27443895 0.1436134
-0.49515775 -0.49247646 -0.3084824 -0.025613157 0.479301 -0.14198765 0.35188413 -0.21020572
-0.24664304 0.25251335
00000000: 1d76 743e 82be a93e f3c1 86be 3362 54be
00000010: 92e4 a23e ff08 f2be cfa6 9e3d ee0c 073f
00000020: 2f5f 9b3e 8298 403d 1b0d abbe bfc6 9dbe
00000030: e4f1 c4be aa89 4fbd 47ee 88be 7457 b93e
00000040: de41 2ebe 4cee f3bd 01f8 a23d ce7d 1b3d
00000050: 5744 a73e ec34 9a3d 699d f13e 6750 813d
00000060: 29c4 c13e f01c 8fbe c4f7 0dbe 87b3 e83e
00000070: 6848 233e 3843 1b3e 36d9 0ebd d210 e7bc
00000080: 8829 31bd 1d8d 65be 38ab d1bd 9e2c 0f3f
00000090: 934e 573d cd3b 423e 2702 aa3e d449 a03d
000000a0: 4174 d8be 132a 9f3c bd2f e73e cc47 d23e
000000b0: db43 e3be 0354 95be 0903 28be 33f2 f13a
000000c0: 0ba9 383d b18b 13bd 0145 cd3e 02a8 afbe
000000d0: 7b1b e2be 7949 bebd 2c1c cabe d179 ae3e
000000e0: 64cf a03e f6be 66bd 2521 8f3e 3bf4 1fbe
000000f0: 8711 99bd c204 9bbe bb22 2b3d 3a9c 1c3e
00000100: f21f 76be 3f90 013e 38b1 05bd 26cb a73d
00000110: 283f a83e 96c0 cebe afc1 4ebe 373d 7e3e
00000120: bb82 dcbe 4887 ccbe d3a6 99bd 587d c5be
00000130: 2ac0 be3e f89b 7d3e 4383 8c3e 640f 133e
00000140: 5185 fdbe e025 fcbe 68f1 9dbe afd2 d1bc
00000150: f166 f53e 3665 11be 282a b43e 2b40 57be
00000160: fe8f 7cbe 6e49 813e
